public/models/allen-celltypes+human-cortex+various-cortical-areas-pumap.onnx (onnx, 331380 bytes, 8 tensors)

1.weight f4 [200, 8]
0.17635675 -0.10336 0.05818355 -0.27840158 -0.0017776608 -0.07613689 0.28368124 -0.13081598
0.19609083 0.1889007 -0.019198325 0.07377871 -0.030335506 -0.46245247 0.09343109 0.14579274
0.2478473 -0.11543716 0.3745225 -0.14178713 -0.10649561 -0.24599506 0.01314548 0.07691809
0.110474445 0.28904033 -0.05813304 0.22401823 -0.090860315 0.15406872 -0.5228666 -0.18392336
-0.33563247 -0.20235494 0.28458253 -0.31137803 -0.10260568 0.23575176 -0.7086383 -0.071506605
0.10586649 -0.22094885 -0.04620905 -0.20161621 0.3351202 0.09627309 -0.35598248 -0.18599378
-0.4226536 0.1312246 0.20290346 -0.07630231 -0.08378484 0.27098668 -0.11791484 0.22158131
-0.16255043 0.074977085 -0.51720655 -0.10987014 -0.16677712 -0.12355835 -0.14165913 -0.2874936
0.17082196 0.0043438114 0.16213895 0.13791203 0.13227803 -0.50934535 0.20855139 -0.096773535
0.0810427 -0.18359156 -0.018067796 0.3099562 0.29306215 0.25390917 -0.23006481 0.24398316
0.22954018 0.1743001 -0.14310354 -0.33964744 0.2459203 0.14962466 -0.014257091 -0.08612625
-0.21178754 0.12991942 0.10729232 0.008555583 0.033531766 0.32901984 -0.2625306 -0.043423038
-0.08513762 0.18372779 0.022973103 0.29175884 -0.023425024 0.04413039 0.11002766 -0.39131764
0.076082915 0.040433668 0.1683892 0.11257178 0.2225904 -0.15037721 0.077677324 -0.20224902
-0.04783138 -0.046905372 -0.2936472 -0.2923571 0.07493543 -0.34452194 0.28250167 0.22069308
0.2378247 0.12701806 -0.49283034 0.050074033 0.27393594 -0.22938365 0.35537708 0.05475056
-0.506952 -0.124098174 0.022262331 -0.36230725 0.14819856 0.100745134 0.052737746 -0.0059224702
-0.065253586 0.032659102 0.35043332 -0.16782163 -0.15559274 -0.09068979 0.3273465 0.07063072
0.121365316 -0.114896156 -0.24015032 -0.42577937 -0.15136395 -0.3265415 0.21715674 0.24622294
-0.3492574 -0.18469818 -0.17768382 0.18553591 0.14176057 -0.03579255 -0.1978642 0.036797117
0.18648894 0.11217342 0.16357543 -0.104114845 -0.1929234 -0.03341136 -0.13564266 -0.21715376
-0.22993924 -0.19129616 -0.27789253 -0.2913286 -0.29982665 0.35681006 -0.24552226 -0.5226655
0.21744539 -0.15181375 -0.17201911 -0.49636438 0.14718282 0.18295947 -0.47881356 -0.6230166
-0.286266 0.12649192 -0.02957898 -0.19616954 0.035542537 -0.08460835 0.2619923 0.21615404
-0.34368527 0.050126627 0.24667922 0.40545338 -0.009650356 -0.1409871 -0.24809444 -0.19422926
0.052292965 -0.3840299 -0.13319409 0.18456016 0.23095855 0.16244715 0.10874039 0.24601315
0.35805294 -0.12465075 0.2654288 0.012386066 0.2201337 0.07386206 -0.077609435 -0.06215114
0.08307357 -0.26735944 -0.33724695 -0.00820768 -0.14668244 0.21106173 0.24843046 0.12311706
-0.22017576 0.08971344 0.07871901 0.04638255 -0.017864471 -0.38921985 -0.19227836 0.19020528
0.10539629 0.07269968 -0.26208714 0.010629315 -0.16617352 -0.20877142 -0.06735584 0.22182971
0.021073049 -0.07005031 -0.0023805858 0.19182034 0.2501291 0.047650773 -0.06767272 0.16754816
-0.4387097 0.037572447 -0.1626422 0.31983665 0.288221 -0.024870384 -0.07270251 -0.30790964
00000000: dd96 343e 68ae d3bd e051 6e3d a78a 8ebe
00000010: 6600 e9ba a8ed 9bbd ab3e 913e a0f4 05be
00000020: 09cc 483e 2f6f 413e ce45 9dbc 4b19 973d
00000030: 2b82 f8bc 92c6 ecbe cd58 bf3d b14a 153e
00000040: afcb 7d3e 516a ecbd 6ac1 bf3e a530 11be
00000050: 5f1a dabd 21e6 7bbe 2460 573c 3b87 9d3d
00000060: 6d40 e23d 18fd 933e e91c 6ebd 0965 653e
00000070: f914 babd 31c4 1d3e 96da 05bf 6856 3cbe
00000080: 05d8 abbe 2236 4fbe cdb4 913e f16c 9fbe
00000090: ed22 d2bd e968 713e 5269 35bf 0e72 92bd
000000a0: 88d0 d83d 6a40 62be b345 3dbd 7b74 4ebe
000000b0: e094 ab3e d32a c53d 5643 b6be 2775 3ebe
000000c0: 0d66 d8be be5f 063e edc5 4f3e 6344 9cbd
000000d0: 6397 abbd c4be 8a3e 567d f1bd 36e6 623e
000000e0: 9f73 26be 968d 993d a667 04bf 9903 e1bd
000000f0: 9fc7 2abe 290c fdbd 170f 11be 5c32 93be
00000100: f4eb 2e3e 8856 8e3b c107 263e d038 0d3e
00000110: e473 073e 7564 02bf 7f8e 553e 3431 c6bd
00000120: b7f9 a53d 6dff 3bbe ea02 94bc 94b2 9e3e
00000130: 3e0c 963e 6200 823e 1c96 6bbe b9d6 793e
00000140: 950c 6b3e ba7b 323e bc89 12be 45e6 adbe
00000150: 88d2 7b3e 3537 193e 9396 69bc f662 b0bd
00000160: d5de 58be 9909 053e 13bc db3d b72c 0c3c
00000170: 9b58 093d 4a75 a83e 696a 86be 5bdc 31bd
00000180: a25c aebd 2323 3c3e 1732 bc3c 6a61 953e
00000190: d6e5 bfbc 11c2 343d 2f56 e13d c95a c8be
000001a0: 5cd1 9b3d c69d 253d 386e 2c3e 098c e63d
000001b0: bdee 633e 7cfc 19be 4a15 9f3d 5e1a 4fbe
000001c0: d6ea 43bd d91f 40bd ed58 96be d4af 95be
000001d0: bf77 993d 2e65 b0be 0fa4 903e 5efd 613e
000001e0: 5188 733e 0611 023e 4254 fcbe 6e1a 4d3d
000001f0: 5541 8c3e 8ce3 6abe fcf3 b53e 2042 603d
00000200: 9bc7 01bf 2f27 febd 7e5f b63c 5680 b9be
00000210: 5dc1 173e 7753 ce3d 8903 583d 4811 c2bb
00000220: aca3 85bd 8dc5 053d ff6b b33e 6fd9 2bbe
00000230: b453 1fbe 92bb b9bd f699 a73e d7a6 903d
00000240: 618e f83d ad4e ebbd f7e9 75be c1ff d9be
00000250: 27ff 1abe 7330 a7be 565e 5e3e de21 7c3e
00000260: ded1 b2be 8521 3dbe bff2 35be 20fd 3d3e
00000270: af29 113e 359b 12bd ea9c 4abe 93b8 163d
00000280: f5f6 3e3e 2ebb e53d 5180 273e 2a3a d5bd
00000290: b68d 45be 5ada 08bd e9e5 0abe 8e5d 5ebe
000002a0: 3175 6bbe 24e3 43be ee47 8ebe 0629 95be
000002b0: e182 99be cfaf b63e 306a 7bbe 68cd 05bf
000002c0: 01aa 5e3e 1075 1bbe c725 30be 7923 febe
000002d0: 18b7 163e ba59 3b3e 0d27 f5be 047e 1fbf
000002e0: 7591 92be 1987 013e 9e4f f2bc abe0 48be
000002f0: 0d95 113d 2547 adbd db23 863e 7c57 5d3e
00000300: 84f7 afbe 9451 4d3d 7a99 7c3e 9697 cf3e
00000310: 871c 1ebc ec5e 10be 780c 7ebe 09e4 46be
00000320: 2631 563d 919f c4be 0864 08be 57fd 3c3e
00000330: 6680 6c3e 8c58 263e 48b3 de3d dfea 7b3e
00000340: b752 b73e e448 ffbd 49e6 873e edee 4a3c
00000350: bb6a 613e fe44 973d b2f1 9ebd 3292 7ebd
00000360: 7a22 aa3d 56e3 88be a2ab acbe 8179 06bc
00000370: ec33 16be 9120 583e 8e64 7e3e cc24 fc3d
00000380: c175 61be aebb b73d 6f37 a13d a1fb 3d3d
00000390: 8358 92bc d347 c7be 9ee4 44be 2cc5 423e
000003a0: 03da d73d 92e3 943d 4930 86be 9426 2e3c
000003b0: 6429 2abe 2dc8 55be dcf1 89bd 5427 633e
000003c0: 63a1 ac3c 8976 8fbd 9a03 1cbb 8d6c 443e
000003d0: ec10 803e 752d 433d ff97 8abd bf91 2b3e
000003e0: 8f9e e0be 91e5 193d ad8b 26be a1c1 a33e
000003f0: b491 933e fabc cbbc 0ee5 94bd 55a6 9dbe

1.bias f4 [200]
0.33968502 -0.18925142 -0.11024431 -0.44395003 0.14910972 0.051657077 -0.29130116 -0.045109943
-0.34617645 0.03665769 -0.5067567 -0.51070905 -0.3596501 0.068433896 -0.1743809 0.003863589
0.05472676 -0.38723606 -0.18056184 0.35195097 -0.055272415 -0.13601916 -0.17903745 -0.16945137
0.10604531 0.22022411 -0.006682789 0.24433143 -0.045428474 0.28683996 0.26493752 -0.3559177
-0.10290046 0.004330669 0.27646437 0.09343689 0.30189142 -0.18389685 -0.1004589 -0.27239236
-0.03378763 0.15771921 0.08226911 -0.17411827 -0.12417927 0.37954402 -0.16330402 0.23079267
-0.054352097 -0.07715374 0.045597445 -0.12410527 0.044847894 0.14281338 0.06276578 -0.043368082
-0.14002934 -0.34542137 0.1976595 0.2124851 -0.19469808 0.025761498 0.24561633 0.10899852
0.028071158 0.07366534 -0.022156408 -0.24355179 -0.013943349 -0.09989772 -0.019947277 -0.037487503
-0.41752896 -0.022376727 0.39737138 0.29932967 0.17245395 -0.16429132 0.2833199 0.07811339
0.42763415 -0.065038845 -0.2639412 0.12113897 -0.0968642 0.25300863 0.31149545 0.026959138
-0.2159181 0.18591101 0.018057419 -0.32600853 0.092704475 -0.06097681 0.020516565 -0.070672356
0.102795914 -0.3652207 -0.16024636 0.07926956 0.20507014 -0.10584814 -0.43392548 -0.15545322
-0.3658992 -0.09367736 0.2582734 -0.35149208 -0.25612363 -0.08536571 -0.05177952 -0.19209842
0.025540309 -0.21564002 0.14131352 -0.0032975585 0.048779473 -0.2864521 0.1973542 0.025108563
0.2847566 0.003398967 -0.117562145 -0.15504226 0.13892286 0.10436219 0.18764766 0.020924967
-0.43117958 -0.20629242 0.18547148 0.13555062 -0.2726515 -0.07233263 0.1901413 -0.20847867
-0.19929558 0.10631689 -0.14974475 0.22669779 -0.03195876 0.04583299 -0.25633696 0.32181644
-0.21654074 0.2604736 0.00322497 -0.34249648 0.008475424 -0.21566826 -0.40685794 -0.34507695
0.16491383 -0.052200597 0.1979506 -0.31170923 -0.02843569 0.121149555 -0.11174548 -0.18450083
-0.26943952 0.10456436 -0.14243981 0.1651206 -0.34875515 -0.44656238 -0.07412395 -0.13696985
0.3908882 0.004089399 -0.17138529 -0.072514005 -0.3316175 -0.08319216 0.07549603 0.37133303
0.16574746 -0.1177188 0.07161976 0.028064553 0.034582637 0.11035819 -0.23195884 0.46754384
0.027246969 -0.05292273 0.40809295 0.082469195 -0.0007168135 -0.1308076 0.40384027 0.007492331
-0.2936539 -0.12063489 0.22691552 -0.025894979 -0.17515828 -0.46230105 -0.23922549 -0.19117673
00000000: 32eb ad3e 20cb 41be c5c7 e1bd 6b4d e3be
00000010: 38b0 183e 5f96 533d 6d25 95be 34c5 38bd
00000020: 0a3e b1be 6026 163d cfba 01bf d4bd 02bf
00000030: 0f24 b8be 1227 8c3d e890 32be 4434 7d3b
00000040: 2b29 603d ce43 c6be 34e5 38be eb32 b43e
00000050: 5465 62bd 9b48 0bbe 9855 37be a984 2dbe
00000060: 492e d93d 6e82 613e 4cfb dabb 0532 7a3e
00000070: 3513 3abd b0dc 923e e4a5 873e d83a b6be
00000080: 7abd d2bd 49e8 8d3b bd8c 8d3e d75b bf3d
00000090: 8391 9a3e 754f 3cbe 65bd cdbd 0377 8bbe
000000a0: e664 0abd 2581 213e b57c a83d 0f4c 32be
000000b0: b351 febd 9853 c23e 2b39 27be ea54 6c3e
000000c0: 4ea0 5ebd c802 9ebd 63c4 3a3d e72a febd
000000d0: 6db2 373d ac3d 123e 588b 803d bba2 31bd
000000e0: da63 0fbe 12db b0be 4167 4a3e b295 593e
000000f0: ef5e 47be c709 d33c d982 7b3e 9e3a df3d
00000100: 7cf5 e53c dbdd 963d 5b81 b5bc a465 79be
00000110: a572 64bc 2d97 ccbd 7968 a3bc 7f8c 19bd
00000120: 5bc6 d5be 664f b7bc 4374 cb3e bd41 993e
00000130: c597 303e fc3b 28be 4e0f 913e eaf9 9f3d
00000140: ddf2 da3e 1633 85bd 4d23 87be b517 f83d
00000150: bd60 c6bd 598a 813e 557c 9f3e 69d9 dc3c
00000160: a219 5dbe 755f 3e3e 27ed 933c 97ea a6be
00000170: d8db bd3d d2c2 79bd 5b12 a83c abbc 90bd
00000180: aa86 d23d 35fe babe 9f17 24be 1458 a23d
00000190: e8fd 513e e9c6 d8bd 7b2b debe 212f 1fbe
000001a0: 2457 bbbe ead9 bfbd 693c 843e c5f6 b3be
000001b0: a322 83be 38d4 aebd c316 54bd 73b5 44be
000001c0: e939 d13c bdd0 5cbe 7eb4 103e da1b 58bb
000001d0: fccc 473d daa9 92be 3817 4a3e 79b0 cd3c
000001e0: 9ecb 913e 34c1 5e3b 6cc4 f0bd 66c3 1ebe
000001f0: cb41 0e3e d8bb d53d b526 403e d66a ab3c
00000200: 92c3 dcbe 523e 53be 3cec 3d3e c8cd 0a3e
00000210: fa98 8bbe 2123 94bd 67b4 423e 6f7b 55be
00000220: 2414 4cbe abbc d93d b056 19be 7723 683e
00000230: 30e7 02bd 60bb 3b3d 993e 83be 20c5 a43e
00000240: dbbc 5dbe cc5c 853e 055a 533b b35b afbe
00000250: 81dc 0a3c 24d8 5cbe af4f d0be edad b0be
00000260: 2cdf 283e 4bd0 55bd 90b3 4a3e 5a98 9fbe
00000270: f7f1 e8bc 421d f83d d0da e4bd c9ed 3cbe
00000280: faf3 89be d725 d63d bedb 11be 6015 293e
00000290: 0990 b2be d3a3 e4be 4cce 97bd d341 0cbe
000002a0: 8022 c83e 5d00 863b a07f 2fbe 3982 94bd
000002b0: c5c9 a9be a760 aabd aa9d 9a3d 5d1f be3e
000002c0: b4b9 293e 8e16 f1bd 61ad 923d a2e7 e53c
000002d0: 86a6 0d3d 7a03 e23d 9e86 6dbe e861 ef3e
000002e0: 0935 df3c 81c5 58bd 8ff1 d03e 9ce5 a83d
000002f0: 8ae8 3bba 6df2 05be 27c4 ce3e 3a82 f53b
00000300: ce59 96be 6d0f f7bd 8b5c 683e b521 d4bc
00000310: b15c 33be b9b2 ecbe 87f7 74be d5c3 43be

3.weight f4 [200, 200]
-0.012550594 -0.09387907 0.058321398 -0.04138193 -0.19645925 0.08931652 -0.05066032 -0.02225122
-0.13442604 -0.03149476 -0.06687844 -0.04557181 -0.07232762 0.03240105 -0.097890265 0.05721528
-0.045369998 -0.043189917 0.03076671 0.09079209 -0.086629026 -0.10654817 -0.20352346 -0.022625212
0.060304724 -0.16798885 0.0498523 -0.0049888412 -0.1601971 -0.016938644 -0.07132321 0.0245509
-0.09843069 -0.02759097 -0.064549305 -0.010641207 0.00058338995 0.022771278 -0.019919666 -0.20244549
-0.052759696 -0.083869934 -0.028485047 -0.109232076 0.00011918309 0.021434344 -0.016304575 0.06659362
-0.027633281 0.14075384 -0.09504665 -0.021921648 0.038667142 0.053491462 -0.065637134 -0.04545182
-0.07519973 0.0025307455 -0.011041586 -0.05996425 0.0034122525 0.036131386 -0.03967031 0.027042078
0.038356707 0.033115074 -0.07949911 0.036481358 -0.018297873 -0.02470397 -0.09672656 -0.0604696
0.047913045 -0.14369065 -0.00439335 -0.04608581 -0.010246216 -0.14650965 0.008622505 0.025527632
0.031017674 -0.072765216 -0.040708665 -0.008508567 0.03580693 -0.058185175 -0.017681612 0.06374903
-0.061594166 0.031061023 -0.011100694 0.030751158 -0.009372892 -0.15508583 0.023976315 -0.008881581
-0.01441236 -0.046210192 0.055267625 -0.100161284 -0.039303437 -0.03553909 0.12759966 -0.14565922
-0.04351812 -0.08456472 -0.0004802605 -0.027234152 -0.0025804886 0.012030187 -0.15016128 0.023640437
0.08626879 -0.101305045 -0.02129686 0.01158566 0.042686112 -0.07379194 -0.05199658 -0.026770346
0.0017182438 -0.06928442 0.06646655 -0.17126425 -0.078340344 -0.05099382 0.07250657 0.08107596
0.0017371884 -0.08527972 0.0042244256 0.07018526 -0.0728084 0.05587476 0.08901655 -0.03345069
0.08778927 0.04899459 0.08051724 0.0063066464 -0.1550433 0.5101018 -0.05778995 0.03344894
-0.06046044 -0.013190925 0.05192133 -0.10403472 -0.084788166 -0.018073987 -0.019527288 0.050022356
-0.026298033 -0.08190119 0.05069552 -0.20043223 0.052280452 -0.05729147 -0.07826546 -0.11110021
-0.20715345 0.030245125 -0.004072676 -0.019103007 -0.076903865 0.07587904 -0.16004623 0.06805933
-0.09609412 -0.07772455 -0.07840317 -0.034070883 -0.041586973 -0.003424524 -0.04634573 -0.089576505
-0.02184588 -0.008618119 0.012293551 -0.081249006 -0.029156245 0.048206504 -0.1752445 0.05172796
0.016889896 0.04179703 0.091577396 -0.07584173 -0.08512915 -0.02172175 -0.08106482 0.041817103
-0.11293085 0.06054441 -0.0029291087 0.119301975 -0.016863361 -0.15420656 0.07499984 -0.12737378
0.061379023 -0.024638787 -0.09737398 -0.08136492 0.022445662 -0.058914606 0.057054713 -0.069352575
-0.028535848 -0.055243775 -0.015645893 0.02640427 -0.075203106 -0.031676017 -0.15381394 -0.032314878
0.04076718 -0.0067023225 -0.45951748 -0.10532967 0.044127814 0.06865703 0.21086378 0.101048276
-0.10515289 0.014152838 -0.06313536 0.031445544 0.06626713 0.07087005 0.0010348683 0.07693677
-0.36055183 -0.044410974 -0.016253922 -0.02823871 -0.44286367 -0.28637785 -0.17398688 0.20983344
0.015402287 0.040378664 -0.04111606 0.037368983 -0.33058044 -0.082915105 -0.06401249 0.030916901
-0.07340803 0.084072 -0.01250404 -0.14092888 0.024429014 -0.009017424 -0.07199601 -0.050535005
00000000: 02a1 4dbc ab43 c0bd 6be2 6e3d 1980 29bd
00000010: 9d2c 49be 94eb b63d 3281 4fbd 3148 b6bc
00000020: fba6 09be a600 01bd 90f7 88bd 82a9 3abd
00000030: 8120 94bd f7b6 043d b17a c8bd 925a 6a3d
00000040: e4d5 39bd e9e7 30bd 780a fc3c 34f1 b93d
00000050: 8f6a b1bd ed35 dabd 7468 50be 8258 b9bc
00000060: 1602 773d 4505 2cbe ed31 4c3d 6f79 a3bb
00000070: b50a 24be e9c2 8abc e711 92bd f81e c93c
00000080: 0896 c9bd 7506 e2bc 6d32 84bd 7558 2ebc
00000090: a3ee 183a d58a ba3c 912e a3bc df4d 4fbe
000000a0: 8d1a 58bd 00c4 abbd 7959 e9bc 11b5 dfbd
000000b0: eff1 f938 1497 af3c 2c91 85bc 3c62 883d
000000c0: 315f e2bc c621 103e d1a7 c2bd 0795 b3bc
000000d0: 7061 1e3d dd19 5b3d c36c 86bd b02b 3abd
000000e0: 5102 9abd ddda 253b c5e7 34bc 139d 75bd
000000f0: 19a0 5f3b 81fe 133d 567d 22bd 5987 dd3c
00000100: ec1b 1d3d aca3 073d 6ed0 a2bd 7a6d 153d
00000110: 6ce5 95bc fb5f cabc 9318 c6bd f9ae 77bd
00000120: 7840 443d a423 13be 17f6 8fbb 79c4 3cbd
00000130: bfdf 27bc a006 16be 6845 0d3c 531f d13c
00000140: c718 fe3c ee05 95bd 21be 26bd 8467 0bbc
00000150: 4aaa 123d 9453 6ebd 07d9 90bc da8e 823d
00000160: 2a4a 7cbd b073 fe3c afdf 35bc dae9 fb3c
00000170: c290 19bc d2ce 1ebe fa69 c43c 0d84 11bc
00000180: d221 6cbc e646 3dbd 4e60 623d 5c21 cdbd
00000190: a4fc 20bd 7091 11bd 7ca9 023e b127 15be
000001a0: 0e40 32bd 4530 adbd 79cb fbb9 281a dfbc
000001b0: 6a1d 29bb 431a 453c e1c3 19be 97a9 c13c
000001c0: b1ad b03d 0579 cfbd c176 aebc c8d1 3d3c
000001d0: a2d7 2e3d 3b20 97bd 5efa 54bd 7c4d dbbc
000001e0: b236 e13a fde4 8dbd 9d1f 883d e55f 2fbe
000001f0: e770 a0bd e5de 50bd 537e 943d 270b a63d
00000200: 5fb2 e33a 22a7 aebd 0d6d 8a3b 4abd 8f3d
00000210: 921c 95bd efdc 643d 4f4e b63d 9703 09bd
00000220: dcca b33d 8dae 483d 39e6 a43d fca7 ce3b
00000230: acc3 1ebe 0896 023f 28b5 6cbd c101 093d
00000240: 5ea5 77bd c01e 58bc 76ab 543d 2810 d5bd
00000250: 6ba5 adbd e60f 94bc b1f7 9fbc 3ee4 4c3d
00000260: f96e d7bc d0bb a7bd 1ba6 4f3d 1b3e 4dbe
00000270: 0724 563d 76aa 6abd a449 a0bd 8288 e3bd
00000280: 0920 54be a0c4 f73c 1574 85bb e97d 9cbc
00000290: c67f 9dbd 7866 9b3d 29e3 23be b162 8b3d
000002a0: fecc c4bd 0d2e 9fbd d791 a0bd e98d 0bbd
000002b0: 1a57 2abd fb6d 60bb 05d5 3dbd e373 b7bd
000002c0: 22f6 b2bc 0333 0dbc e46a 493c e165 a6bd
000002d0: 14d9 eebc 2f74 453d 4b73 33be b3e0 533d
000002e0: ae5c 8a3c 5d33 2b3d ee8c bb3d e952 9bbd
000002f0: 3158 aebd d0f1 b1bc 5005 a6bd 6948 2b3d
00000300: 4a48 e7bd 6afd 773d 4af6 3fbb 9854 f43d
00000310: 0825 8abc 53e8 1dbe 8499 993d 466e 02be
00000320: 9268 7b3d 48d7 c9bc 026c c7bd a7a2 a6bd
00000330: f7df b73c 7150 71bd 34b2 693d b908 8ebd
00000340: 03c4 e9bc 4c47 62bd d12b 80bc c54d d83c
00000350: 1604 9abd b6be 01bd 6781 1dbe 9b5c 04bd
00000360: 7dfb 263d 289f dbbb e045 ebbe 15b7 d7bd
00000370: 5ebf 343d 0f9c 8c3d adec 573e 66f2 ce3d
00000380: 665a d7bd 4ee1 673c 1d4d 81bd 0bcd 003d
00000390: 10b7 873d 5124 913d 6ba4 873a 0691 9d3d
000003a0: 409a b8be 48e8 35bd f226 85bc de54 e7bc
000003b0: 07bf e2be 1ea0 92be 9e29 32be 94de 563e
000003c0: e059 7c3c 1964 253d 5069 28bd 3810 193d
000003d0: d741 a9be 65cf a9bd fb18 83bd 7145 fd3c
000003e0: f356 96bd f12d ac3d bfdd 4cbc a94f 10be
000003f0: 5b1f c83c d1bd 13bc a572 93bd cbfd 4ebd

3.bias f4 [200]
-0.0478964 0.08415042 -0.03134053 0.06153531 -0.0063763442 -0.0066555985 -0.12777704 -0.044024434
-0.051681582 0.058634765 -0.02353203 -0.043046366 0.07356829 -0.1288701 -0.023019195 -0.10305182
-0.07623802 -0.029399551 0.03870117 -0.1913945 0.006470807 0.038776986 0.01559941 0.0069973757
0.052547805 0.014433957 0.01695238 -0.014398772 -0.1825816 -0.021313006 0.095889345 -0.07331966
0.002668746 0.21123391 0.0067315493 -0.02345423 0.15010084 0.031540573 0.09710729 -0.0064212205
-0.09885892 0.14722833 -0.02300711 0.019758549 -0.03891057 -0.06301291 0.0074927253 -0.016833263
-0.031515248 0.024219843 -0.08435318 -0.054756623 -0.0112395575 -0.050224934 -0.063664146 -0.061500885
-0.0692692 0.13448247 0.051681165 0.028235935 0.15975772 -0.12087991 -0.16586648 0.062195793
-0.0037897085 -0.091718234 -0.08252131 0.022326285 -0.018508177 0.038947556 -0.008193119 -0.02592999
-0.23951983 0.05126687 -0.008802108 0.1268481 -0.06548081 -0.04073338 -0.06558552 -0.027899757
0.017270805 -0.07901292 -0.13044165 -0.07192558 0.07474648 0.036569413 -0.08069551 0.06279329
0.034164485 -0.10622178 -0.062293235 0.13617697 -0.19562359 -0.016777238 -0.100995034 -0.13072878
-0.028605942 0.04266175 -0.041711718 -0.008724823 0.034290727 -0.014552146 -0.081005715 0.104541175
-0.03554694 -0.026518868 -0.028920833 0.0014283712 -0.11548154 -0.06305953 0.062713265 0.09173555
-0.17948002 0.13590623 0.119456545 -0.10240347 -0.06730171 0.008033709 0.14866558 0.121039964
-0.084294885 0.111504346 0.07261391 -0.097625054 -0.06148845 -0.057138737 -0.051636863 0.25471786
0.053326055 -0.046029903 -0.07611221 0.073069185 -0.04481938 -0.062033013 0.020224933 -0.033394087
-0.09193175 0.19559081 -0.04174888 -0.057929356 -0.09806001 -0.19537836 0.005637097 0.005054385
-0.098288395 -0.05733898 -0.08720027 -0.08051565 0.01507537 0.014006699 -0.0136737125 0.08231949
-0.08001271 -0.11960292 -0.081792064 0.14112502 -0.08943994 -0.033774924 0.013992127 0.043643426
-0.08966693 0.027315617 -0.07406593 0.036687348 -0.12620728 0.036893826 0.035597056 0.13684872
-0.0027318143 -0.13779673 -0.19973087 0.016626855 -0.06407389 0.036256626 -0.07561816 -0.11413258
-0.05847556 -0.00014515447 -0.04994078 -0.09484114 -0.10579131 0.03991203 0.008066299 -0.031258114
-0.1902647 -0.069279976 -0.052937746 -0.08125664 0.06967901 -0.010245701 -0.15125053 0.090474136
-0.009893868 -0.06566022 0.024499586 -0.06645007 0.0012753692 -0.051957574 -0.021260304 -0.09803032
00000000: 042f 44bd 0e57 ac3d ed5e 00bd 730c 7c3d
00000010: a7f0 d0bb 3517 dabb fcd7 02be f752 34bd
00000020: 11b0 53bd 022b 703d 3ec6 c0bc 6351 30bd
00000030: f9aa 963d 86f6 03be c092 bcbc d50c d3bd
00000040: ae22 9cbd 54d7 f0bc 1e85 1e3d ebfc 43be
00000050: 1009 d43b 9ed4 1e3d ab94 7f3c 3e4a e53b
00000060: 5e3c 573d 677c 6c3c b8df 8a3c d4e8 6bbc
00000070: acf6 3abe 9d98 aebc a261 c43d 9e28 96bd
00000080: 21e6 2e3b b44d 583e 5494 dc3b 1623 c0bc
00000090: 09b4 193e b030 013d 30e0 c63d 1a69 d2bb
000000a0: 8c76 cabd 06c3 163e 6879 bcbc aedc a13c
000000b0: b160 1fbd ea0c 81bd 8985 f53b e9e5 89bc
000000c0: 2216 01bd b168 c63c 5cc1 acbd 7b48 60bd
000000d0: 1f26 38bc a9b8 4dbd 5962 82bd 5ae8 7bbd
000000e0: 03dd 8dbd c6b5 093e a1af 533d 0c4f e73c
000000f0: 8797 233e e38f f7bd e7d8 29be 04c1 7e3d
00000100: c25c 78bb c5d6 bbbd ef00 a9bd 9de5 b63c
00000110: 769e 97bc 7987 1f3d 6f3c 06bc 216b d4bc
00000120: b044 75be 36fd 513d b736 10bc 78e4 013e
00000130: ce1a 86bd 0bd8 26bd b351 86bd 088e e4bc
00000140: 817b 8d3c 87d1 a1bd 7f92 05be b84d 93bd
00000150: af14 993d cfc9 153d b043 a5bd c599 803d
00000160: 0ff0 0b3d ce8a d9bd 3127 7fbd fa71 0b3e
00000170: 8d51 48be 6b70 89bc 7cd6 cebd c4dd 05be
00000180: 0257 eabc 16be 2e3d e8d9 2abd 8ff2 0ebc
00000190: 6f74 0c3d 206c 6ebc 53e6 a5bd af19 d63d
000001a0: ab99 11bd 193e d9bc 62eb ecbc 2f38 bb3a
000001b0: 9681 ecbd 5b25 81bd d06f 803d d9df bb3d
000001c0: 9cc9 37be 012b 0b3e a2a5 f43d e9b8 d1bd
000001d0: 7bd5 89bd d19f 033c ca3b 183e cde3 f73d
000001e0: cca2 acbd 645c e43d 9ab6 943d a5ef c7bd
000001f0: 50db 7bbd 4f0a 6abd 2d81 53bd 616a 823e
00000200: 6c6c 5a3d da89 3cbd b8e0 9bbd 4ca5 953d
00000210: 8794 37bd 5416 7ebd c2ae a53c 3dc8 08bd
00000220: b746 bcbd f548 483e e000 2bbd 5547 6dbd
00000230: b0d3 c8bd 4411 48be 66b7 b83b 419f a53b
00000240: 6d4b c9bd 47dc 6abd 0e96 b2bd 64e5 a4bd
00000250: affe 763c 5b7c 653c b507 60bc 1f97 a83d
00000260: b4dd a3bd 60f2 f4bd 9982 a7bd 1483 103e
00000270: 4a2c b7bd 9357 0abd 3c3f 653c 73c3 323d
00000280: 4ca3 b7bd 00c5 df3c e1af 97bd 7945 163d
00000290: 7b3c 01be fb1d 173d 38ce 113d 1222 0c3e
000002a0: 3d08 33bb 961a 0dbe 4086 4cbe 0b35 883c
000002b0: 2c39 83bd d481 143d b2dd 9abd 58be e9bd
000002c0: 1284 6fbd 9b34 18b9 b48e 4cbd 123c c2bd
000002d0: 1da9 d8bd cc7a 233d 8328 043c 8208 00bd
000002e0: c0d4 42be a9e2 8dbd 40d5 58bd e269 a6bd
000002f0: deb3 8e3d 96dd 27bc 6be1 1abe 814a b93d
00000300: e419 22bc de78 86bd 5bb3 c83c f916 88bd
00000310: 4a2a a73a 77d1 54bd 172a aebc 1fc4 c8bd

5.weight f4 [200, 200]
-0.0349223 0.26298177 0.03478502 -0.086795814 -0.0041881837 0.039301954 0.027202468 -0.006455536
0.053421125 0.09290862 -0.023867618 0.12802243 -0.14062425 0.104813024 -0.022455342 0.09415248
0.11928289 -0.01336026 -0.07797841 0.090571664 0.074331224 -0.16486005 -0.2216366 0.0048008068
-0.07148557 -0.010930683 -0.007020663 0.088766366 0.15069902 0.07416691 -0.20338893 -0.055066437
-0.0060297973 0.051319066 0.007973341 0.03309456 0.04177033 0.00738044 -0.05929181 0.05058604
-0.059060544 0.122546785 0.02478552 0.16272673 0.13275984 0.07048162 -0.124345146 0.10360242
-0.20174176 -0.036996894 -0.09824984 -0.027065512 0.0015852562 -0.07324544 -0.043200646 -0.027618079
0.021634301 0.052004214 0.14392559 -0.10415 0.12921199 -0.052335124 -0.014454245 -0.015197682
-0.039577417 0.10401668 -0.052370388 -0.054589074 -0.020837558 0.011266705 0.061581127 -0.055631496
0.06265236 0.08749703 -0.13346104 0.115715094 -0.036266033 0.1052987 -0.022833165 0.17189571
-0.0019191989 -0.011043316 0.004667709 0.10340776 0.12014558 0.16272302 -0.07116478 -0.26240805
0.11868133 -0.098660044 0.04851651 -0.07003957 0.11229535 -0.01076525 -0.03569857 0.04737042
0.07031846 -0.027626876 0.2099148 0.10343276 0.055205297 0.009226317 0.06835701 0.050569672
0.07937463 0.087765135 0.04891635 0.074590236 0.065848924 -0.103177786 0.14109798 -0.24047272
0.06240714 -0.19437234 0.013213422 0.03063161 0.22394828 0.01208755 -0.21803983 0.049544655
-0.04929617 0.04249409 -0.025220005 0.1408834 -0.036947325 0.031229325 -0.0060699685 -0.03680953
0.05428735 -0.07646134 0.14871456 -0.00025999942 0.047185633 0.04944107 0.09103255 -0.03067661
-0.0089466125 0.0936657 0.03344466 0.09416748 0.039994344 -0.0036243582 0.0592169 0.08268278
-0.02394949 0.15756238 0.19725434 0.051646583 0.2550945 0.08725433 -0.014200422 0.029303612
0.029032728 0.046127833 -0.03055937 0.07629372 0.32899064 -0.017214507 -0.191272 0.01968492
0.09808113 -0.09209444 0.024362113 -0.040133003 0.08169574 0.0035734307 -0.05409709 -0.11244046
0.034795295 0.05160554 0.10176412 0.14302282 0.09294244 0.14238825 0.073233746 0.07834618
0.0071860105 0.007962985 -0.053217657 -0.056644198 0.013611563 0.06799909 -0.0056238617 -0.060148012
0.21615429 0.1657168 -0.28373468 0.049328584 0.07636796 0.12377404 0.13997866 0.11728343
-0.0151418615 0.1551433 0.12665552 -0.17621468 -0.028053401 0.044899337 0.021591635 -0.10230227
0.07458851 -0.2930974 -0.08308943 0.2645763 0.01644503 0.15421811 0.038496383 0.1585366
-0.046308156 -0.064212255 0.015092842 -0.0056248414 -0.032193825 0.04326227 0.003571887 0.08458375
0.056278843 0.0679319 0.23432073 -0.027361032 -0.0044529405 -0.038342 0.124644004 0.04056577
0.058769066 0.041414633 -0.050093573 0.13262902 -0.1905569 0.21027172 0.50169694 -0.021057012
-0.0019349044 0.044414137 0.043055274 -0.041728105 -0.062295653 -0.06465716 0.013488641 0.01733442
0.13493314 -0.19782893 -0.10651505 -0.19674058 0.14085485 0.038991537 0.05062766 0.12961113
0.31692955 0.041916292 0.13132517 0.028522896 0.041278057 0.06537571 0.19962183 0.0019672704
00000000: b00a 0fbd 8ca5 863e bd7a 0e3d 01c2 b1bd
00000010: 083d 89bb 16fb 203d b6d7 de3c f688 d3bb
00000020: 1cd0 5a3d e046 be3d 0686 c3bc 5018 033e
00000030: ceff 0fbe 36a8 d63d 44f4 b7bc 04d3 c03d
00000040: 964a f43d fee4 5abc 25b3 9fbd a37d b93d
00000050: f83a 983d 13d1 28be b4f4 62be 1650 9d3b
00000060: 0767 92bd 9c16 33bc 970d e6bb 24cb b53d
00000070: d850 1a3e d2e4 973d 3045 50be 588d 61bd
00000080: 9b95 c5bb f133 523d 9ea2 023c 298e 073d
00000090: 5e17 2b3d 9ed7 f13b f8db 72bd 4f33 4f3d
000000a0: 78e9 71bd cff9 fa3d 010b cb3c d6a1 263e
000000b0: 32f2 073e ab58 903d aba8 febd 812d d43d
000000c0: 6495 4ebe 0e8a 17bd 3637 c9bd 7eb8 ddbc
000000d0: 5fc8 cf3a b501 96bd 29f3 30bd 4f3f e2bc
000000e0: 6b3a b13c 5f02 553d 3b61 133e 984c d5bd
000000f0: 2650 043e 5b5d 56bd 7fd1 6cbc b3ff 78bc
00000100: ee1b 22bd b206 d53d 5582 56bd cb98 5fbd
00000110: 87b3 aabc fc97 383c 7e3c 7c3d dadd 63bd
00000120: e14f 803d a531 b33d 03aa 08be 09fc ec3d
00000130: b18b 14bd d8a6 d73d 9e0c bbbc 6e05 303e
00000140: a18d fbba 06ef 34bc 95f3 983b 73c7 d33d
00000150: e30e f63d dda0 263e d7be 91bd 595a 86be
00000160: 320f f33d 470e cabd 3fb9 463d e870 8fbd
00000170: 1bfb e53d bb60 30bc aa38 12bd 7c07 423d
00000180: 2003 903d c251 e2bc e8f3 563e 8ed4 d33d
00000190: f31e 623d fa29 173c c3fe 8b3d 2522 4f3d
000001a0: 2a8f a23d 35be b33d 835c 483d c4c2 983d
000001b0: cddb 863d e04e d3bd fd7b 103e 7b3e 76be
000001c0: a19e 7f3d 8b09 47be 1c7d 583c 24ef fa3c
000001d0: b352 653e dc0a 463c d545 5fbe 56ef 4a3d
000001e0: c8ea 49bd 480e 2e3d 2f9a cebc bd43 103e
000001f0: 1456 17bd a4d4 ff3c 96e6 c6bb 97c5 16bd
00000200: 6a5c 5e3d c397 9cbd a148 183e 8850 88b9
00000210: b945 413d b882 4a3d 466f ba3d 844d fbbc
00000220: d094 12bc cdd3 bf3d 45fd 083d e1da c03d
00000230: 1cd1 233d a486 6dbb 6c8d 723d 9755 a93d
00000240: b931 c4bc 0858 213e 0bfd 493e 5e8b 533d
00000250: bf9b 823e 66b2 b23d e3a8 68bc 210e f03c
00000260: 0bd6 ed3c 8af0 3c3d a557 fabc e23f 9c3d
00000270: 7671 a83e 7005 8dbc cfdc 43be 4542 a13c
00000280: c2de c83d 029c bcbd 0e93 c73c 8162 24bd
00000290: 1950 a73d 3830 6a3b e994 5dbd 2f47 e6bd
000002a0: 8385 0e3d 5560 533d b569 d03d 9374 123e
000002b0: 9b58 be3d 3ace 113e 93fb 953d f673 a03d
000002c0: a078 eb3b 2e77 023c c2fa 59bd bf03 68bd
000002d0: 0803 5f3c 1b43 8b3d 5f48 b8bb c35d 76bd
000002e0: 8d57 5d3e aab1 293e ac45 91be c50c 4a3d
000002f0: ce66 9c3d 3e7d fd3d 9156 0f3e 4c32 f03d
00000300: 9215 78bc e3dd 1e3e fcb1 013e 9f71 34be
00000310: 3fd0 e5bc 5ee8 373d f1e0 b03c da83 d1bd
00000320: dcc1 983d dd10 96be cb2a aabd 8b76 873e
00000330: bab7 863c 5aeb 1d3e 62ae 1d3d 6b57 223e
00000340: 9fad 3dbd b781 83bd f847 773c 9750 b8bb
00000350: acdd 03bd c733 313d 5216 6a3b 3f3a ad3d
00000360: a584 663d e11f 8b3d c6f1 6f3e 3e24 e0bc
00000370: f9e9 91bb 800c 1dbd 5b45 ff3d 4b28 263d
00000380: d5b7 703d 64a2 293d eb2e 4dbd e7cf 073e
00000390: 5921 43be 7851 573e 366f 003f c17f acbc
000003a0: 9e9c fdba 99eb 353d ba5a 303d 17eb 2abd
000003b0: ba29 7fbd f96a 84bd 76ff 5c3c ea00 8e3c
000003c0: ea2b 0a3e ab93 4abe 9024 dabd 5d76 49be
000003d0: 413c 103e 97b5 1f3d f35e 4f3d c8b8 043e
000003e0: 9744 a23e 6bb0 2b3d 1b7a 063e d9a8 e93c
000003f0: 2e13 293d b3e3 853d aa69 4c3e 52ed 003b

5.bias f4 [200]
0.14120771 -0.023654249 0.11401598 0.007514521 0.1310588 0.070982516 0.038653392 -0.15716647
0.07141141 0.043000102 -0.0669502 -0.099581555 -0.06910894 0.34854114 -0.038754113 0.082350135
-0.08995278 0.01853875 0.02488745 0.072732575 0.0607665 -0.041535005 0.12064451 -0.041047342
-0.06937197 0.12663728 -0.06457735 0.051798876 0.038362063 0.08704821 0.11695382 0.01931661
0.23155731 0.033391904 0.041955005 -0.047260474 0.1882721 -0.050768446 0.15276758 0.036515504
-0.044146907 -0.004836649 0.013312313 -0.052348122 -0.06801184 -0.0661407 0.110477984 0.03078806
0.000917176 -0.03692426 -0.05941265 0.16244103 0.105117135 -0.0019966436 -0.12462654 -0.029946221
0.0077246944 0.23974016 -0.028373167 0.26432768 -0.10743383 -0.02227376 -0.025247205 0.08227543
-0.03967463 0.13926758 0.026849125 -0.00014960364 0.14711191 -0.14188156 0.13712592 -0.056071028
-0.04096409 -0.020050084 0.008073317 0.16123572 0.022894742 -0.15321583 -0.07568875 0.10082632
0.035136953 0.050144058 -0.018448729 0.15022601 0.12804955 -0.030071873 0.20018092 0.11217617
0.051212706 0.08429653 -0.04777304 0.029067488 0.03133365 0.1298533 -0.044468276 0.15943578
0.07066636 0.016691986 -0.06867769 -0.031283434 0.0009998843 0.23230463 -0.035378058 -0.040577944
-0.035652224 -0.040431824 0.27297625 -0.0021530462 0.011909328 -0.15577298 0.07777912 0.041871145
-0.046256863 -0.08328776 0.020442318 0.05009178 -0.08309813 0.081435785 0.10937013 -0.050457273
0.12211766 0.025879283 0.24919833 0.03975974 -0.008534635 -0.03588771 0.16925728 -0.00908931
0.088700145 0.04687316 0.044303328 0.00013084052 -0.0021635147 -0.025203953 0.035151955 0.020112189
0.03062828 0.014407051 0.30720484 0.013812837 -0.014586523 0.122097604 -0.028888993 0.15404657
-0.04707308 -0.04598216 0.085906655 -0.033050086 -0.0052914447 0.32579863 -0.010560819 0.106897585
-0.009897748 -0.0005841694 0.0068314336 -0.012142936 0.043327548 0.0104797445 -0.026956787 -0.06473887
-0.07314564 -0.06227003 0.0019958187 0.018289058 0.10020857 0.16336825 0.12492035 -0.12965357
-0.024108522 0.113190964 -0.00020105328 0.15531392 -0.05580481 0.014949769 0.06359955 0.14784804
-0.036062673 0.070638485 -0.058745194 -0.062099855 0.00822759 0.12096438 -0.0088728415 -0.002698112
-0.051419027 -0.022599872 0.08899018 0.006851311 0.029901458 -0.096781276 0.06269334 -0.031320296
0.017474445 0.0073600425 0.12396326 -0.007116006 -0.03801484 0.10813353 0.16119236 -0.022602126
00000000: c198 103e 8ec6 c1bc 3681 e93d 5f3c f63b
00000010: 4734 063e 485f 913d 0553 1e3d 3ff0 20be
00000020: 2540 923d e020 303d 301d 89bd 6af1 cbbd
00000030: fd88 8dbd fc73 b23e a2bc 1ebd 30a7 a83d
00000040: 2a39 b8bd 94de 973c c4e0 cb3c d1f4 943d
00000050: 4be6 783d 9c20 2abd 7814 f73d 4221 28bd
00000060: e412 8ebd 34ad 013e 2141 84bd 0f2b 543d
00000070: 8a21 1d3d 5546 b23d 7c85 ef3d de3d 9e3c
00000080: 5c1d 6d3e f3c5 083d 03d9 2b3d 3394 41bd
00000090: 67ca 403e 93f2 4fbd 1b6f 1c3e 4891 153d
000000a0: 63d3 34bd c17c 9ebb e31b 5a3c fc6a 56bd
000000b0: cb49 8bbd c674 87bd 4842 e23d 3e37 fc3c
000000c0: a46e 703a e53d 17bd ae5a 73bd f156 263e
000000d0: a747 d73d 1fda 02bb 333c ffbd c751 f5bc
000000e0: 6f1f fd3b 727e 753e d86e e8bc f555 873e
000000f0: 4506 dcbd 7677 b6bc 3ad3 cebc 0580 a83d
00000100: dd81 22bd 299c 0e3e b2f2 db3c ecde 1cb9
00000110: 81a4 163e 6649 11be bd6a 0c3e bcaa 65bd
00000120: f6c9 27bd 1340 a4bc f245 043c fa1a 253e
00000130: c18d bb3c 9ce4 1cbe b402 9bbd 087e ce3d
00000140: c4eb 0f3d db63 4d3d ca21 97bc d9d4 193e
00000150: 6c1f 033e 4a59 f6bc 3afc 4c3e 9fbc e53d
00000160: 6ac4 513d a9a3 ac3d aaad 43bd f11e ee3c
00000170: b757 003d 43f8 043e 5e24 36bd 2243 233e
00000180: 86b9 903d a2bd 883c e4a6 8cbd 0f23 00bd
00000190: 8d0e 833a 44e1 6d3e 95e8 10bd 0f35 26bd
000001a0: 1108 12bd d79b 25bd 8bc3 8b3e 1f1a 0dbb
000001b0: 581f 433c f482 1fbe a94a 9f3d 1481 2b3d
000001c0: d677 3dbd c692 aabd a676 a73c 0a2d 4d3d
000001d0: 5a2f aabd cec7 a63d 72fd df3d 49ac 4ebd
000001e0: d318 fa3d ca00 d43c d92d 7f3e 1cdb 223d
000001f0: dbd4 0bbc fefe 12bd c851 2d3e 54eb 14bc
00000200: 6ca8 b53d 12fe 3f3d 6877 353d 3c32 0939
00000210: c1c9 0dbb 8578 cebc 7ffb 0f3d 51c2 a43c
00000220: 29e8 fa3c 8d0b 6c3c f449 9d3e 3d4f 623c
00000230: 50fc 6ebc 4f0e fa3d 9ca8 ecbc 62be 1d3e
00000240: b4cf 40bd ca57 3cbd d4ef af3d 875f 07bd
00000250: db63 adbb 14cf a63e 4907 2dbc 1fed da3d
00000260: 2a2a 22bc f222 19ba 38da df3b 2af3 46bc
00000270: 3a78 313d 3cb3 2b3c 7bd4 dcbc d095 84bd
00000280: 62cd 95bd dc0e 7fbd 48cc 023b efd2 953c
00000290: 273a cd3d 024a 273e 3ed6 ff3d e8c3 04be
000002a0: 3c7f c5bc aad0 e73d d4d1 52b9 9d0a 1f3e
000002b0: 9693 64bd e0ef 743c 7b40 823d 7a65 173e
000002c0: 74b6 13bd e9aa 903d cd9e 70bd 6b5c 7ebd
000002d0: 03cd 063c 2cbc f73d 655f 11bc cfd2 30bb
000002e0: c29c 52bd 5e23 b9bc 7c40 b63d f680 e03b
000002f0: e7f3 f43c 4335 c6bd 5e65 803d b649 00bd
00000300: 9126 8f3c 832c f13b 73e0 fd3d 632d e9bb
00000310: 73b5 1bbd 1d75 dd3d 9c0f 253e 1828 b9bc

7.weight f4 [2, 200]
-0.27608085 0.42910638 0.19855917 0.25182807 0.4019688 0.028533315 -0.56874377 -0.26916814
-0.19831558 0.32662466 0.664934 -0.030405998 -0.31279585 0.12243713 -0.046361905 -0.06891209
-0.50680465 0.32074377 -0.17838587 -0.29675722 -0.13886538 0.48853102 -0.15491398 -0.09622115
0.041882098 -0.09554189 0.36767673 -0.24742077 0.19506148 -0.09780964 -0.13234557 -0.15713823
-0.08715956 -0.048249908 0.11362311 -0.3984044 -0.10566892 -0.68139774 0.030031728 0.14480078
0.26610333 -0.2668591 -0.21055336 -0.030633384 -0.008648831 -0.070028074 -0.10592097 -0.13511503
-0.18207026 0.0012100785 0.007882317 0.42845386 0.09732121 0.007429213 0.5205205 0.6208364
0.43171453 0.28688 -0.0020128891 0.060481187 0.4496227 0.03163031 -0.21375453 -0.08885793
-0.17452137 0.033379253 0.02973471 0.5435597 0.030875763 0.1710115 -0.23986149 -0.008298313
7.261238e-05 -0.26341218 0.0502266 -0.08825338 -0.293775 0.44426236 0.64514095 0.29314804
0.28696683 -0.21627797 -0.28297728 0.28602773 -0.08489418 0.76673114 0.3252057 0.104230374
-0.09641586 -0.14766847 0.31869307 -0.09546183 -0.0024008742 0.23369338 -0.07485524 0.14616252
-0.12943913 0.7190321 0.4939845 0.030448362 0.27100042 0.23591207 -0.108823225 0.0136638675
-0.022986652 0.20263144 -0.04667372 0.22847545 -0.2176834 0.07617342 0.17133623 -0.58934265
-0.047502898 0.47473314 0.40114605 -0.18828206 0.6424881 -0.07429228 0.56226474 -0.6842114
0.021018468 -0.0036685625 -0.074372955 0.06322216 -0.04329909 -0.0433078 -0.2747196 0.36408624
0.54156595 -0.055707674 0.42423728 -0.0046490286 0.031322386 0.44124836 -0.3091942 0.32498866
-0.029188117 -0.10254944 0.17924133 -0.24482085 0.45616224 -0.21435687 0.0017513545 0.065610364
-0.029500753 0.38327962 -0.11364792 0.040007606 0.22165738 0.30219445 0.016599061 -0.1193842
0.48349416 -0.04762812 -0.090389475 -0.06350146 0.01976491 0.37169978 -0.047412686 -0.044080865
0.0177288 -0.03887849 -0.80910784 -0.1801137 -0.10952538 0.005639721 -0.07410539 0.46381983
0.26574257 -0.18805738 -0.22883664 0.20153946 -0.027386239 -0.13771157 -0.19042483 -0.12172931
-0.2703948 0.31513995 0.052683234 0.80355424 -0.15728706 0.08711017 -0.1461134 -0.08074382
-0.001286299 0.2557068 -0.117543414 0.1445842 0.0104863355 -0.14839396 -0.110477455 0.6652749
0.30232686 -0.045904685 0.030432519 0.40993977 0.028889507 0.11490864 0.19861892 0.38607886
0.37039924 -0.14674819 0.3730504 -0.27939022 0.14640884 -0.0913116 0.6695175 0.48031625
0.09227031 0.28355753 0.2555051 0.017890185 -0.07162679 0.24103335 -0.010268505 -0.12272297
1.2244196 0.50368446 -0.022343632 0.09368095 -0.19167814 0.9234533 -0.17482287 -0.02616145
0.043177284 0.5145845 -0.33980155 0.064419165 -0.16783333 -0.06825824 0.016293488 0.033200227
-0.051877603 0.055138715 -0.14416339 0.67305124 -0.11784401 0.8365128 0.2615475 -0.12719093
0.36652812 0.06011346 -0.104936585 0.018391171 -0.05155588 0.26530463 -0.08300686 0.030756783
-0.029847251 -0.015560576 0.012930771 -0.048267175 -0.12622477 -0.015509749 1.2898546 0.3470079
00000000: 785a 8dbe d5b3 db3e 1853 4b3e 9cef 803e
00000010: dbce cd3e b3be e93c 3199 11bf 68d0 89be
00000020: 3d13 4bbe 593b a73e 1d39 2a3f 0016 f9bc
00000030: c726 a0be 51c0 fa3d fbe5 3dbd c821 8dbd
00000040: f3bd 01bf 8738 a43e c9aa 36be 90f0 97be
00000050: ba32 0ebe bd20 fa3e c5a1 1ebe 980f c5bd
00000060: 908c 2b3d 77ab c3bd 2040 bc3e df5b 7dbe
00000070: 32be 473e 6c50 c8bd 9985 07be d8e8 20be
00000080: b680 b2bd b2a1 45bd 3cb3 e83d a9fb cbbe
00000090: f268 d8bd 1570 2ebf 1905 f63c a846 143e
000000a0: b23e 883e c2a1 88be 4d9b 57be ddf2 fabc
000000b0: d4b3 0dbc e16a 8fbd 18ed d8bd 985b 0abe
000000c0: a070 3abe 7f9b 9e3a d524 013c 4e5e db3e
000000d0: 5850 c73d c170 f33b d540 053f 22ef 1e3f
000000e0: b009 dd3e efe1 923e adea 03bb 1fbb 773d
000000f0: f234 e63e c98e 013d 78e2 5abe 25fb b5bd
00000100: bbb5 32be afb8 083d 3596 f33c ba26 0b3f
00000110: 2bef fc3c a31d 2f3e 409e 75be a6f5 07bc
00000120: 7a47 9838 f6dd 86be 68ba 4d3d 30be b4bd
00000130: ad69 96be 5b76 e33e f527 253f 8017 963e
00000140: 51ed 923e f977 5dbe 66e2 90be 3a72 923e
00000150: 00dd adbd 7e48 443f 5d81 a63e bc76 d53d
00000160: ae75 c5bd 6736 17be bd2b a33e 7e81 c3bd
00000170: fc57 1dbb 514d 6f3e b44d 99bd a1ab 153e
00000180: b18b 04be 7d12 383f 89eb fc3e d86e f93c
00000190: 91c0 8a3e ef92 713e b6de debd 6ade 5f3c
000001a0: 814e bcbc 9e7e 4f3e f12c 3fbd 78f5 693e
000001b0: 66e8 5ebe cf00 9c3d c472 2f3e 29df 16bf
000001c0: 6692 42bd 3910 f33e 0463 cd3e 03cd 40be
000001d0: 1a7a 243f 8d26 98bd 95f0 0f3f 7a28 2fbf
000001e0: ec2e ac3c 446c 70bb d950 98bd 9f7a 813d
000001f0: 635a 31bd 8563 31bd 0ca8 8cbe 8369 ba3e
00000200: 11a4 0a3f bb2d 64bd a135 d93e e156 98bb
00000210: e74b 003d 4eeb e13e b44e 9ebe ea64 a63e
00000220: eb1b efbc 7105 d2bd 0a8b 373e 51b2 7abe
00000230: 198e e93e 5e80 5bbe b58d e53a ba5e 863d
00000240: 90ab f1bc 3a3d c43e 3ec0 e8bd 04df 233d
00000250: 27fa 623e 3bb9 9a3e c1fa 873c b47f f4bd
00000260: 8c8c f73e b415 43bd 1e1e b9bd 0e0d 82bd
00000270: 05ea a13c 6f4f be3e ce33 42bd 238e 34bd
00000280: fd3b 913c 0d3f 1fbd b121 4fbf ba6f 38be
00000290: d84e e0bd 69cd b83b 91c4 97bd cb79 ed3e
000002a0: 690f 883e 1d92 40be 2754 6abe 5c60 4e3e
000002b0: 1b59 e0bc 4304 0dbe bafe 42be 374d f9bd
000002c0: 3071 8abe 065a a13e 60ca 573d bbb5 4d3f
000002d0: dc0f 21be d166 b23d c09e 15be 045d a5bd
000002e0: 0899 a8ba 00ec 823e 9aba f0bd e10d 143e
000002f0: e1ce 2b3c 96f4 17be 0142 e2bd 754f 2a3f
00000300: 96ca 9a3e 8d06 3cbd 9e4d f93c a0e3 d13e
00000310: b0a9 ec3c 3955 eb3d c262 4b3e 21ac c53e
00000320: f8a4 bd3e 2845 16be 7600 bf3e 3c0c 8fbe
00000330: 33ec 153e 9301 bbbd 8065 2b3f 03ec f53e
00000340: 37f8 bc3d 742e 913e 91d1 823e 708e 923c
00000350: 11b1 92bd 72d1 763e 3b3d 28bc 2e56 fbbd
00000360: c8b9 9c3f 77f1 003f fe09 b7bc ccdb bf3d
00000370: 4647 44be 6f67 6c3f c404 33be 8a50 d6bc
00000380: aada 303d cfbb 033f 78fa adbe 32ee 833d
00000390: 80dc 2bbe faca 8bbd ec79 853c f6fc 073d
000003a0: 9c7d 54bd 22d9 613d 919f 13be 164d 2c3f
000003b0: 3358 f1bd b425 563f 8ee9 853e 573e 02be
000003c0: 93a9 bb3e 8839 763d fee8 d6bd 15a9 963c
000003d0: 422c 53bd 02d6 873e 80ff a9bd a6f5 fb3c
000003e0: 3982 f4bc c9f1 7ebc 96db 533c cdb3 45bd
000003f0: 1141 01be 9a1c 7ebc f519 a53f 05ab b13e

7.bias f4 [2]
0.040743984 -0.050857093
00000000: 2ae3 263d 874f 50bd
