public/models/allen-celltypes+human-cortex+various-cortical-areas-pumap.onnx (onnx, 86202 bytes, 8 tensors)

dense1.weight f4 [100, 8]
0.3453354 0.32500604 -0.09167563 -0.69943273 -0.5649124 -0.7680972 -0.27810308 -0.539552
0.06420186 -0.02118172 -0.14823991 0.0020092817 -0.09443479 0.14000686 -0.05522077 -0.014592329
-0.4457173 0.08596722 -0.17397626 -3.030973 -2.7398827 -0.42182285 0.11901835 0.24488722
0.20645563 -0.1373832 0.091249146 -0.6108919 0.10723735 0.2364657 -0.4953203 -0.6930169
-0.8667823 -1.5831864 -0.5285776 -0.8547823 0.24320264 -0.44797707 -0.016268946 -0.07291068
0.11074498 0.20543595 -0.68038493 -0.34951416 -0.08788555 -0.23328763 -0.007946082 -0.19920976
0.16444778 -0.4026688 -0.28204182 0.55917025 -0.20104139 0.33592036 -0.01819737 0.07386516
-0.007758756 0.1620405 0.04971716 0.5062576 -0.16497196 -0.23547825 -0.24164717 0.23750207
-0.048825037 -0.0070106094 -0.06364431 0.11494411 -0.07027133 0.03899816 -0.3512005 0.12925625
0.03869184 0.12188817 -0.11243381 0.22683649 -0.08239645 0.1656522 -0.13020179 0.102183536
-0.31537864 -0.5912458 -0.099215806 -0.18050927 0.13724263 -0.5107381 -0.14293826 0.004302284
0.042380974 0.21687584 -0.21265195 0.4548677 0.05994466 0.26822543 -0.34402046 0.024959218
0.4353776 -0.06839833 -0.505684 0.23835388 -0.4067904 0.543683 -0.23267727 -0.17166808
-0.075902075 0.05631746 0.031575043 -0.13503763 -0.4182409 -0.049310993 0.17708607 -0.2862878
-0.020905862 -0.082999885 -0.04321397 -0.08260714 -0.058896385 -0.027189415 -0.021825608 0.013765843
0.18960473 -0.113662936 -0.3357147 0.26501825 0.09244607 0.009381384 -0.332679 0.0017640017
-1.0873638 0.2878638 -0.29512683 -0.22972508 0.009355777 -0.8413812 -0.084419586 0.05747164
-0.15156297 -0.19434878 -0.1530092 0.00032650132 -0.19297408 -0.18644592 0.06811608 -0.043763675
0.01732223 -0.015909849 -0.010595763 -0.25019157 0.0005984868 -0.026723074 0.027833287 -0.052842595
-0.08113357 -0.20535107 -0.24170364 0.52139443 -0.3227376 -0.14419526 0.20495124 0.20331396
-0.256269 -0.028938638 -0.24284096 -0.34928897 -0.20641546 0.09910033 0.033910837 0.1455365
0.19852881 -0.31570837 0.021494456 -0.8318779 0.3411003 0.35796598 -1.6934642 -0.7689786
0.010749731 -0.091646105 -0.13714416 -0.31592897 -0.120042995 0.032521993 0.014898102 -0.020652266
-0.20348215 0.1979021 0.11632926 0.15859647 0.05342649 0.4016077 -0.43351492 -0.19186375
0.08018804 0.37051496 -0.20846836 -0.7526255 -0.3294906 0.14428279 0.12690222 0.25235623
-0.6078689 -1.5724423 -0.26624542 -0.20628136 -0.1737416 0.076797634 0.09862197 -0.135478
-0.00987921 -0.06518012 -0.045895763 0.10256676 0.17297685 0.15925701 -0.058073346 -0.25378808
0.041002072 -0.4805878 0.21545605 -0.285828 0.075542994 0.23992541 -0.98867834 -0.3532323
-0.20765892 0.09173645 0.08479601 -0.37871885 -0.08576396 0.23899035 -0.25663444 -0.009105282
0.21296202 -0.28605625 -0.34737116 -0.00313107 -0.19836982 -0.40137646 0.26317632 0.039050177
0.18671605 0.09622017 0.019246941 -0.01902442 -0.64340836 -0.040714692 -0.23209001 0.093543924
0.40081388 -0.13758689 -0.2623156 0.18978706 -0.08541191 0.072906435 -0.3051814 0.11856737
00000000: cdcf b03e 3167 a63e 6fc0 bbbd 060e 33bf
00000010: 199e 10bf 05a2 44bf 8763 8ebe 1420 0abf
00000020: 447c 833d 4985 adbc 34cc 17be 27ae 033b
00000030: 0767 c1bd f55d 0f3e 2d2f 62bd aa14 6fbc
00000040: 0f35 e4be 950f b03d d526 32be 76fb 41c0
00000050: 3d5a 2fc0 2af9 d7be e5bf f33d b7c3 7a3e
00000060: 1b69 533e 2eae 0cbe d5e0 ba3d 6963 1cbf
00000070: 419f db3d 1124 723e 9f9a fdbe 8e69 31bf
00000080: 72e5 5dbf daa5 cabf dd50 07bf 03d3 5abf
00000090: 1d0a 793e 405d e5be 7446 85bc 3252 95bd
000000a0: 44ce e23d cd5d 523e b52d 2ebf 85f3 b2be
000000b0: 57fd b3bd f4e2 6ebe 4930 02bc a5fd 4bbe
000000c0: 0065 283e 9b2a cebe c967 90be c825 0f3f
000000d0: cbdd 4dbe c1fd ab3e a712 95bc 9e46 973d
000000e0: 2a3d febb f2ed 253e 39a4 4b3d 199a 013f
000000f0: 69ee 28be 3621 71be 5b72 77be be33 733e
00000100: c3fc 47bd 41b9 e5bb f357 82bd d167 eb3d
00000110: 6aea 8fbd 89bc 1f3d 8dd0 b3be c05b 043e
00000120: 567b 1e3d 81a0 f93d b343 e6bd d347 683e
00000130: 78bf a8bd bba0 293e 9e53 05be 9a45 d13d
00000140: 4f79 a1be e25b 17bf a831 cbbd 6cd7 38be
00000150: 5589 0c3e bbbf 02bf 685e 12be 2dfa 8c3b
00000160: ac97 2d3d b314 5e3e 6fc1 59be 6be4 e83e
00000170: 8888 753d d854 893e 7323 b0be 4677 cc3c
00000180: d0e9 de3e 6c14 8cbd 8274 01bf 0a13 743e
00000190: d546 d0be cf2e 0b3f f342 6ebe c2c9 2fbe
000001a0: 8c72 9bbd 23ad 663d d554 013d 4e47 0abe
000001b0: ac23 d6be 53fa 49bd 0d56 353e 5194 92be
000001c0: c542 abbc d8fb a9bd 2201 31bd ef2d a9bd
000001d0: 563d 71bd 56bc debc 9ecb b2bc 218a 613c
000001e0: be27 423e 1dc8 e8bd cce2 abbe 79b0 873e
000001f0: 5d54 bd3d 60b4 193c e754 aabe 1336 e73a
00000200: bd2e 8bbf e262 933e dd1a 97be 0d3d 6bbe
00000210: f948 193c c264 57bf 2de4 acbd 6267 6b3d
00000220: 5333 1bbe 5e03 47be 72ae 1cbe 442e ab39
00000230: ff9a 45be aeeb 3ebe 7180 8b3d 8a41 33bd
00000240: 59e7 8d3c 5f55 82bc da99 2dbc 1c19 80be
00000250: c5e3 1c3a 59ea dabc a202 e43c 7a71 58bd
00000260: 5b29 a6bd 8d47 52be 2981 77be 1b7a 053f
00000270: dd3d a5be eca7 13be bdde 513e 8931 503e
00000280: b135 83be b910 edbc 4dab 78be 01d6 b2be
00000290: 935e 53be 1df5 ca3d 17e6 0a3d 8507 153e
000002a0: 234b 4b3e 87a4 a1be 2415 b03c f3f5 54bf
000002b0: b3a4 ae3e 5147 b73e 6fc3 d8bf c8db 44bf
000002c0: a41f 303c f4b0 bbbd 856f 0cbe 71c1 a1be
000002d0: 1ad9 f5bd c835 053d 2b17 743c f12e a9bc
000002e0: a05d 50be d9a6 4a3e 093e ee3d 1d67 223e
000002f0: bcd5 5a3d 869f cd3e abf5 ddbe ee77 44be
00000300: a139 a43d 23b4 bd3e bb78 55be 11ac 40bf
00000310: feb2 a8be debe 133e a8f2 013e d634 813e
00000320: 4c9d 1bbf ca45 c9bf 5251 88be 6c3b 53be
00000330: 51e9 31be 1448 9d3d 51fa c93d bfba 0abe
00000340: 69dc 21bc 287d 85bd 32fd 3bbd 850e d23d
00000350: d820 313e 4514 233e 51de 6dbd 83f0 81be
00000360: caf1 273d 9b0f f6be 83a0 5c3e 0c58 92be
00000370: 49b6 9a3d 02af 753e 061a 7dbf ddda b4be
00000380: 8aa4 54be 52e0 bb3d 88a9 ad3d 70e7 c1be
00000390: 04a5 afbd e3b9 743e 9765 83be 522e 15bc
000003a0: b712 5a3e f775 92be a2da b1be a332 4dbb
000003b0: 7521 4bbe 3781 cdbe 0cbf 863e 14f3 1f3d
000003c0: 7e32 3f3e 150f c53d c3ab 9d3c 1ad9 9bbc
000003d0: 69b6 24bf 73c4 26bd 01a9 6dbe f593 bf3d
000003e0: 7a37 cd3e 94e3 0cbe 3b4e 86be 8a57 423e
000003f0: 71ec aebd f84f 953d bd40 9cbe 73d3 f23d

dense1.bias f4 [100]
0.56235904 0.22524105 0.22695847 -1.0378282 -0.7889338 0.015096153 0.976481 0.5765948
0.4830136 -0.009228191 -0.26374632 0.5620876 0.351705 0.18259205 0.050781604 0.53577405
-0.32722917 -0.006903512 -0.31007653 -0.07411759 0.2725711 -1.3231792 -0.17539425 0.3375353
-0.46550635 -0.09576587 -0.34703577 -0.9894931 0.5326375 0.2102621 0.49991006 0.4847723
0.33027738 -0.4892093 1.1008213 0.0 -0.07405502 -0.51620424 0.37965482 -0.6522244
-0.26632184 0.6020772 -1.177149 -0.47471178 -0.6789753 -0.62941176 -0.9619122 0.15688959
0.32338178 -0.49879786 0.8169788 -0.7982996 -0.4983299 -0.46196952 -0.9889037 -1.2782135
-0.2135468 -0.61246246 -0.3304559 -0.14344288 -0.75912535 -1.0575414 0.88268936 -0.0796237
-0.094056256 -1.1677248 0.8189986 -1.1554313 -0.6543483 0.6643554 -0.6240766 -0.015021713
0.382273 0.4359193 -0.29659346 -0.29107568 -1.2336072 -0.41668883 -0.15051138 -0.6884827
-0.27998513 0.10592748 0.4133888 -0.6168786 0.0 0.08263725 -0.340546 -0.18260685
-0.44333124 -0.8241638 0.67078054 0.049370207 0.06583189 0.35893694 -0.049247272 0.61366385
-0.27984676 -1.4387375 0.52634174 -0.8543969
00000000: c3f6 0f3f 97a5 663e cd67 683e 8ed7 84bf
00000010: 91f7 49bf db55 773c a9fa 793f b89b 133f
00000020: 8f4d f73e d731 17bc c209 87be f9e4 0f3f
00000030: ae12 b43e 69f9 3a3e 5f00 503d 7d28 093f
00000040: 958a a7be db36 e2bb 5ac2 9ebe f7ca 97bd
00000050: 708e 8b3e f05d a9bf 8d9a 33be 6dd1 ac3e
00000060: d956 eebe e520 c4bd acae b1be 6b4f 7dbf
00000070: ee5a 083f f34e 573e 36f4 ff3e 1334 f83e
00000080: 1e1a a93e a479 fabe b6e7 8c3f 0000 0000
00000090: 29aa 97bd f625 04bf 1e62 c23e 2ef8 26bf
000000a0: 565b 88be bb21 1a3f d2ac 96bf 6c0d f3be
000000b0: 53d1 2dbf 2121 21bf e13f 76bf aaa7 203e
000000c0: 4c92 a53e 6f62 ffbe 8625 513f 5d5d 4cbf
000000d0: 1925 ffbe 4587 ecbe cb28 7dbf 809c a3bf
000000e0: 03ac 5abe 57ca 1cbf 8431 a9be b1e2 12be
000000f0: 0a56 42bf 845d 87bf eef7 613f c011 a3bd
00000100: 91a0 c0bd 0278 95bf e4a9 513f 2ce5 93bf
00000110: 5f83 27bf 3213 2a3f 7cc3 1fbf a21d 76bc
00000120: 49b9 c33e d130 df3e 19db 97be df07 95be
00000130: d7e6 9dbf 3d58 d5be a81f 1abe 6740 30bf
00000140: 365a 8fbe 82f0 d83d b2a7 d33e c2eb 1dbf
00000150: 0000 0000 b83d a93d 0c5c aebe 4afd 3abe
00000160: 50fc e2be 66fc 52bf 46b8 2b3f 6a38 4a3d
00000170: dfd2 863d 95c6 b73e 82b7 49bd 1319 1d3f
00000180: 1348 8fbe 8d28 b8bf 55be 063f c1b9 5abf

dense2.weight f4 [100, 100]
-0.54273003 0.013162486 0.38711157 0.2768114 1.545879 -0.30201727 -0.13078567 -0.25092414
0.1223178 -0.06747006 0.2795075 0.025552163 -0.15006992 -0.19125426 0.1362997 0.11913846
-0.5169382 -0.15635066 0.13943443 -0.0067972164 -0.11326306 1.3780265 0.08602837 -0.20879567
-0.20095533 -0.1584383 0.033046175 0.4077553 -0.5354607 -0.3713152 -0.27788886 0.07813119
0.19672881 -0.1379271 -0.17434593 -0.107790545 -0.18228945 -0.16391851 -0.5036325 0.17341368
0.06685949 0.071254976 0.11596294 -0.23637404 0.117443606 0.22367786 -0.23288059 -0.09837191
0.24876735 -0.20975354 0.17037886 -0.345266 0.010480644 -0.2525437 -0.14776346 0.10820889
-0.4349571 -0.2958399 -0.09558101 0.008340884 0.11883617 -0.32974228 -0.7033563 0.12697418
-0.9106133 1.2149136 -0.02917873 1.2729771 0.0052999966 0.041082203 -0.11593725 0.1966789
0.11967472 0.13222118 -0.20257635 0.17436793 -0.111062214 -0.013970907 -0.030275838 1.0416554
-0.19782835 0.27177885 -0.08893968 0.9691626 -0.06179116 0.0531996 0.20187107 -0.09309304
-0.17891704 0.019081438 0.006438919 -0.045064036 0.08713494 -0.019575404 -0.08845358 -0.006108485
0.11591661 0.37727338 -0.25294125 -0.054833174 -0.12631029 0.0050527495 0.66098815 -0.015775662
-0.12702876 -0.05639221 -0.98421425 -0.52668124 -1.2908075 -0.4279248 0.14667447 -1.7030823
-0.0779003 0.10954137 0.24049275 -0.015386075 -0.11612553 0.15255807 -0.23611961 -0.089320466
0.26111543 0.061785266 -0.08806198 -1.5836107 0.12431771 -0.0058321375 0.07711778 0.15936774
0.0491694 0.28519917 -0.15920135 0.029571602 0.4596355 -0.16018394 0.00681008 -0.123118326
0.15351924 0.009942188 -0.08708498 -0.25666505 0.72448176 -0.5648041 -0.116693124 -0.017746141
-0.22961158 -0.091249384 0.12253254 -0.27206582 -0.39599186 -0.110280305 -0.055731215 -1.1552054
0.20668906 0.50589955 0.16034414 -0.13680217 0.045048848 -0.09406402 -0.32068714 -1.084186
-0.5124921 -0.35571104 0.23571055 -0.31585002 -3.058567 -0.084877625 -0.027318103 -0.038499136
-0.12781216 0.15990663 -0.047826372 -0.539243 -0.13874125 -0.16350317 0.11339757 0.057608973
-0.06646843 -0.0538133 -1.6063939 -0.17088519 0.004018865 -0.47862148 -0.20077035 -0.08820765
-0.069028415 0.08266162 0.03664937 -0.11890009 0.036516715 -0.86294806 0.027176859 0.047921963
0.09073686 -1.6854104 0.03378241 0.1635825 -0.15031712 0.10462248 -0.67636263 -0.7429034
0.027789049 0.03355421 0.89744323 0.27661788 0.15637091 -0.04022253 -0.5964586 -0.5903234
-0.7670743 -0.3838808 -0.12568848 -1.1566573 -0.09311772 0.14773047 -0.13109042 -0.15802087
0.026649727 -0.15099514 -0.112048104 -0.042687546 0.17069441 1.1783459 0.031748656 -0.883876
-0.01504872 -0.14232281 -0.10401259 0.506776 -0.11713299 0.17287306 -0.19593085 0.039660838
0.4721614 -0.08701066 -0.47845858 0.0987598 -0.058929715 -0.041441474 0.107406005 0.1690621
-0.56781685 -0.037447084 0.4130094 -0.12729812 -0.104264855 -0.18517178 0.07832171 -0.25942785
0.09695954 -0.29092112 0.0020487232 -0.80356 -0.025009902 0.3419743 0.0013782318 -0.039273467
00000000: 5bf0 0abf 78a7 573c 7d33 c63e 39ba 8d3e
00000010: 5ddf c53f 02a2 9abe aeec 05be 2179 80be
00000020: c181 fa3d be2d 8abd 9b1b 8f3e c552 d13c
00000030: eeab 19be 28d8 43be 2692 0b3e ddfe f33d
00000040: 1056 04bf 631a 20be e6c7 0e3e 2fbb debb
00000050: 77f6 e7bd 2c63 b03f a42f b03d 88ce 55be
00000060: 3cc7 4dbe a63d 22be 6d5b 073d 4dc5 d03e
00000070: f413 09bf 071d bebe 7347 8ebe 3f03 a03d
00000080: 4773 493e c33c 0dbe bd87 32be 4ac1 dcbd
00000090: 16aa 3abe 41da 27be 0fee 00bf 5b93 313e
000000a0: a1ed 883d 21ee 913d fa7d ed3d 090c 72be
000000b0: 4686 f03d cf0b 653e 4078 6ebe 3677 c9bd
000000c0: debc 7e3e a2c9 56be cc77 2e3e b5c6 b0be
000000d0: 02b7 2b3c 684d 81be 4e4f 17be 9f9c dd3d
000000e0: b2b2 debe 5478 97be fabf c3bd 34a8 083c
000000f0: 6160 f33d fbd3 a8be 290f 34bf 8505 023e
00000100: f41d 69bf 4a82 9b3f 3b08 efbc eaf0 a23f
00000110: 98ab ad3b d045 283d 8270 edbd 3266 493e
00000120: 0518 f53d fd64 073e 2d70 4fbe 828d 323e
00000130: 9674 e3bd 3be6 64bc 0905 f8bc f754 853f
00000140: 8493 4abe 9926 8b3e 0226 b6bd 0a1b 783f
00000150: ba18 7dbd d3e7 593d 4ab7 4e3e 90a7 bebd
00000160: 0736 37be ad50 9c3c 91fd d23b 1195 38bd
00000170: ce73 b23d 995c a0bc 2727 b5bd b029 c8bb
00000180: b065 ed3d fa29 c13e 8481 81be c098 60bd
00000190: 7c57 01be 8991 a53b 8536 293f f63b 81bc
000001a0: d413 02be 85fb 66bd 77f5 7bbf 95d4 06bf
000001b0: 2e39 a5bf f618 dbbe d531 163e 9afe d9bf
000001c0: 318a 9fbd 3a57 e03d bb43 763e e015 7cbc
000001d0: 39d3 edbd 2f38 1c3e 57c9 71be a6ed b6bd
000001e0: ecb0 853e 8c12 7d3d d759 b4bd c1b3 cabf
000001f0: 499a fe3d 841b bfbb edef 9d3d 4c31 233e
00000200: da65 493d a005 923e ae05 23be 2540 f23c
00000210: 5855 eb3e 4207 24be 1727 df3b 7625 fcbd
00000220: 2634 1d3e 8fe4 223c 9c59 b2bd 9a69 83be
00000230: a377 393f 0097 10bf cefc eebd 5b60 91bc
00000240: 4c1f 6bbe f5e0 babd 57f2 fa3d 364c 8bbe
00000250: 72bf cabe a4da e1bd 6a46 64bd c5dd 93bf
00000260: 4ca6 533e a282 013f 4131 243e de15 0cbe
00000270: 2485 383d a3a4 c0bd 1b31 a4be 9bc6 8abf
00000280: af32 03bf c21f b6be 1b5e 713e 18b7 a1be
00000290: 90bf 43c0 52d4 adbd 37ca dfbc 45b1 1dbd
000002a0: 31e1 02be 90be 233e 96e5 43bd d40b 0abf
000002b0: 3012 0ebe 606d 27be fc3c e83d 63f7 6b3d
000002c0: 9a20 88bd 566b 5cbd 519e cdbf 87fc 2ebe
000002d0: afb0 833b e00d f5be be96 4dbe 36a6 b4bd
000002e0: c55e 8dbd 7f4a a93d a61d 163d e481 f3bd
000002f0: 8d92 153d 2aea 5cbf 01a2 de3c d249 443d
00000300: 3fd4 b93d 87bb d7bf 6d5f 0a3d 2c82 273e
00000310: bbec 19be 5044 d63d 1a26 2dbf eb2e 3ebf
00000320: dca5 e33c 2470 093d d7be 653f dca0 8d3e
00000330: b21f 203e 61c0 24bd 83b1 18bf 6f1f 17bf
00000340: fb5e 44bf 068c c4be 7bb4 00be 590d 94bf
00000350: 81b4 bebd a846 173e 913c 06be 39d0 21be
00000360: 8750 da3c 789e 1abe 7a79 e5bd 23d9 2ebd
00000370: 84ca 2e3e 0ad4 963f e10a 023d b345 62bf
00000380: e88e 76bc 12bd 11be 8e04 d5bd 12bc 013f
00000390: 6ce3 efbd a305 313e 19a2 48be 6773 223d
000003a0: 24bf f13e a532 b2bd 86f8 f4be 9442 ca3d
000003b0: 4960 71bd 89be 29bd aef7 db3d 9d1e 2d3e
000003c0: 725c 11bf 1d62 19bd f875 d33e 705a 02be
000003d0: d088 d5bd ac9d 3dbe 2267 a03d bad3 84be
000003e0: b992 c63d 9df3 94be df43 063b 1cb6 4dbf
000003f0: 91e1 ccbc 4117 af3e c9a5 b43a 37dd 20bd

dense2.bias f4 [100]
-0.36441845 0.19536798 -0.09760133 0.21988602 -0.23514935 0.8185775 -0.4020122 -0.6704066
-0.30069387 -0.094248354 0.8777036 -0.47222266 -0.6863798 -0.24063036 0.7393509 0.24082242
-0.06000772 -0.119454876 -0.64928246 0.24889408 -0.42991546 0.29530162 -0.6138976 -0.518573
0.59407026 0.2661174 0.32224938 0.7739718 0.73781073 -0.08146544 0.10650673 -0.6499446
-0.39362374 -0.23540473 -0.69809633 0.8066939 -0.04565495 0.016349562 -0.23033425 -0.24349904
-0.5241963 0.04511687 -0.415901 0.043608673 -0.07400127 -0.42370218 -0.19616368 0.28104684
0.712469 0.109560944 0.6554941 -0.21649371 -0.32933488 0.017707093 0.558859 -0.30924293
-0.13512775 0.38366526 0.6867848 -0.8229163 -0.41503212 -0.4136524 -0.32154492 -0.1476687
0.50627035 -0.09248525 -0.5088619 -0.61186004 -0.4370519 -0.0488819 -0.39959663 -0.07402982
0.5414171 -0.20375603 0.33783832 0.2740828 -1.3321267 -0.21423635 -0.5744116 -0.09970748
0.055863272 -0.4617953 -0.13156056 -0.32701397 0.4117771 -0.18138367 0.19446301 0.81799436
-0.04925389 0.5820338 0.35186887 0.6129961 -0.05760955 0.016349934 -0.17768392 0.26972902
0.2655553 -0.26008514 -0.10746721 -0.14315628
00000000: 0e95 babe 8b0e 483e 35e3 c7bd cd29 613e
00000010: feca 70be 4c8e 513f 8bd4 cdbe c49f 2bbf
00000020: 8cf4 99be 4805 c1bd 2fb1 603f 2bc7 f1be
00000030: 96b6 2fbf ce67 76be 1a46 3d3f 279a 763e
00000040: a8ca 75bd c2a4 f4bd 6037 26bf 17de 7e3e
00000050: e11d dcbe c631 973e 6528 1dbf 33c1 04bf
00000060: fd14 183f 8a40 883e dffd a43e 0423 463f
00000070: 2ae1 3c3f 5ad7 a6bd 3320 da3d c562 26bf
00000080: 0d89 c9be f00d 71be 71b6 32bf 7e83 4e3f
00000090: af00 3bbd 84ef 853c bedc 6bbe d057 79be
000000a0: bb31 06bf 78cc 383d faf0 d4be 029f 323d
000000b0: fa8d 97bd 7eef d8be 22df 48be 5fe5 8f3e
000000c0: 5e64 363f 7d61 e03d 76ce 273f 87b0 5dbe
000000d0: 959e a8be 770e 913c 6211 0f3f 1755 9ebe
000000e0: ee5e 0abe c66f c43e 21d1 2f3f a5aa 52bf
000000f0: 177f d4be 3fca d3be 89a1 a4be 7736 17be
00000100: ef9a 013f e868 bdbd c644 02bf dca2 1cbf
00000110: 44c5 dfbe 6338 48bd ee97 ccbe f29c 97bd
00000120: 509a 0a3f 6ca5 50be 25f9 ac3e 9554 8c3e
00000130: 2183 aabf c660 5bbe a30c 13bf 6f33 ccbd
00000140: e3d0 643d 6f70 ecbe d0b7 06be 606e a7be
00000150: 73d4 d23e a4bc 39be 5021 473e 1468 513f
00000160: 72be 49bd 2b00 153f 2828 b43e 50ed 1c3f
00000170: fef7 6bbd 4cf0 853c c6f2 35be ec19 8a3e
00000180: ddf6 873e e129 85be c517 dcbd 8f97 12be

dense3.weight f4 [100, 100]
0.14410555 -0.07556912 -0.06796186 0.080896445 -0.04404316 -0.1934744 -0.09671116 0.26455772
0.18232363 -0.11370232 -0.071193956 -0.28717002 0.103711024 -0.34898677 -0.73550326 0.16276476
0.08639896 0.13550447 0.21364492 -0.026392281 -0.10230728 -0.24186742 0.19604883 0.38326916
0.050738487 0.13435055 -0.04878808 -0.24657813 -0.13138808 -0.32591808 0.2820996 -0.095352285
-0.5058713 0.75373536 -0.28904334 0.043857574 0.018763846 -0.095678024 -0.23569994 0.13918531
-0.92817163 -0.13219722 -0.1496846 0.3135301 -0.101932965 0.1130273 0.22069725 0.2830172
-0.36463404 0.41934642 -0.44619042 0.42288548 -0.13206209 -0.0850594 0.059945922 -0.047981277
0.09671719 0.2334283 0.042739917 0.039898686 0.18881363 0.16853774 -0.0032700663 -0.382788
0.17164952 0.07999483 0.47226915 0.24324213 -0.069593154 0.110207625 -0.15678602 0.008555631
-0.010651113 -0.013213693 -0.002324487 -0.026746582 1.1674386 0.13282675 -0.3646934 -0.5034862
-0.0056654788 -0.45219395 -0.15535076 -0.06102136 -0.21258576 0.12922896 0.10866896 -0.34181282
-0.19136432 -0.07642883 0.06899965 -0.12521651 -0.014491452 -0.05315573 0.03771475 -0.040056173
-0.16755451 -0.1882039 -0.08743506 -0.34057873 0.28552276 0.42805648 0.64296675 -0.19861437
0.23758745 -0.24145743 0.50240666 0.099164456 -0.079552785 0.21745877 -0.46199253 0.1748837
0.010401785 -0.029568624 -0.784191 -0.1997454 0.09663585 -0.25425327 0.17040259 0.017236555
0.4825239 -1.0891843 0.030477136 0.01817375 -0.9755167 -0.052184884 -0.5314049 -0.7012694
-1.3846872 0.80673236 -0.05529195 0.0924173 0.9210353 0.16307144 0.79511535 -0.14120622
0.15912013 -0.59481764 0.010484252 -0.06544586 0.55233294 -0.2819907 0.40003106 -0.019766204
-0.27790952 0.29622036 -0.07008193 -0.44455737 -0.78302234 -0.3878492 -0.17126377 0.26156297
0.06774673 -0.15498081 0.024639107 -0.18558915 0.017897582 -0.3289017 -0.23211582 0.09172788
0.040559024 0.11174619 0.34911373 -0.21688518 -0.37051955 0.09120264 0.08675004 -0.8291195
0.18180609 0.16569772 0.13215302 -0.013304102 -0.75895315 0.4397826 -0.75392014 -0.32166025
0.4222826 0.13476186 0.7827233 0.05709914 -0.13783702 0.7051365 -0.6331853 0.17896591
-0.07636639 0.06650342 0.10200266 -0.4365131 0.007921077 -1.4148706 -0.6389884 -0.69714993
-0.024318842 -0.34261718 0.120367005 -0.69584614 0.16658887 -0.16556254 -0.07115791 -0.31350988
-0.04921345 0.3053323 -0.0062282905 -0.08472337 0.052222114 -0.23396896 -0.44428274 0.29040343
0.06667824 -0.10099594 0.0638458 -0.23179823 -0.3822324 0.06458517 0.47030395 -0.2021257
0.08618789 0.0779718 0.9989992 -0.5054526 0.0778218 0.10468225 0.23072934 0.22892517
-0.4600787 -0.14163835 0.009140068 0.31448376 0.2742823 -0.37427294 -1.0547194 -0.14386754
-0.3813569 0.29092064 0.01775375 -0.17084819 0.008556012 0.117442004 -0.23236139 0.20376778
-0.22819172 0.12346092 -0.2118449 0.38333184 0.15266474 0.35402802 -0.3648524 0.026867514
-0.09961109 -0.6083225 -0.39789838 0.55487806 -0.22319701 0.1870108 -0.102985784 -0.14217392
00000000: 6890 133e fcc3 9abd 962f 8bbd 09ad a53d
00000010: 9a66 34bd 271e 46be 8010 c6bd 1c74 873e
00000020: 0cb3 3a3e c3dc e8bd 23ce 91bd f307 93be
00000030: 7266 d43d 65ae b2be f149 3cbf ceab 263e
00000040: f0f1 b03d afc1 0a3e bcc5 5a3e a034 d8bc
00000050: 7b86 d1bd 18ac 77be 06c1 483e db3b c43e
00000060: 29d3 4f3d 3193 093e 03d6 47bd fa7e 7cbe
00000070: 998a 06be bcde a6be 5c6f 903e 0f48 c3bd
00000080: c880 01bf cdf4 403f 7dfd 93be 00a4 333d
00000090: a3b6 993c d7f2 c3bd 535b 71be 9886 0e3e
000000a0: a89c 6dbf b55e 07be eb46 19be 0487 a03e
000000b0: 3bc2 d0bd db7a e73d 76fe 613e a1e7 903e
000000c0: 50b1 babe 93b4 d63e 1273 e4be 7284 d83e
000000d0: 493b 07be 9f33 aebd db89 753d 0488 44bd
000000e0: aa13 c63d d407 6f3e 0d10 2f3d ce6c 233d
000000f0: 5c58 413e 2895 2c3e 9c4e 56bb cafc c3be
00000100: e4c4 2f3e 54d4 a33d 43cd f13e 7714 793e
00000110: db86 8ebd 89b4 e13d 848c 20be eb2c 0c3c
00000120: 0282 2ebc 3f7e 58bc 6c56 18bb a61b dbbc
00000130: a16e 953f bc03 083e 18b9 babe 79e4 00bf
00000140: 7ba5 b9bb f785 e7be 4514 1fbe 89f1 79bd
00000150: 15b0 59be 9954 043e d58d de3d 1702 afbe
00000160: 02f5 43be b886 9cbd b04f 8d3d c238 00be
00000170: 8e6d 6dbc d3b9 59bd c87a 1a3d f111 24bd
00000180: 6993 2bbe 86b8 40be 2711 b3bd 5660 aebe
00000190: 0a30 923e 382a db3e 7899 243f 9161 4bbe
000001a0: 204a 733e 9e40 77be b99d 003f bc16 cb3d
000001b0: 92ec a2bd 83ad 5e3e 498a ecbe b614 333e
000001c0: 406c 2a3c e639 f2bc bec0 48bf 0f8a 4cbe
000001d0: 04e9 c53d 7c2d 82be 047e 2e3e ad33 8d3c
000001e0: 5f0d f73e 646a 8bbf 30ab f93c 1ee1 943c
000001f0: 76bb 79bf d1bf 55bd 270a 08bf 6486 33bf
00000200: 6e3d b1bf 0386 4e3f d079 62bd 4845 bd3d
00000210: f8c8 6b3f 33fc 263e ae8c 4b3f 5d98 10be
00000220: 63f0 223e f845 18bf 24c6 2b3c 7b08 86bd
00000230: b165 0d3f 1661 90be dfd0 cc3e bcec a1bc
00000240: 284a 8ebe 32aa 973e 1d87 8fbd 069d e3be
00000250: 2774 48bf 2c94 c6be c55f 2fbe 95eb 853e
00000260: ccbe 8a3d 4ab3 1ebe f4d7 c93c 150b 3ebe
00000270: f39d 923c ce65 a8be c5af 6dbe d4db bb3d
00000280: 3821 263d 30db e43d 09bf b23e 2617 5ebe
00000290: bdb4 bdbe 73c8 ba3d 01aa b13d 2d41 54bf
000002a0: 602b 3a3e aaac 293e 1f53 073e 73f9 59bc
000002b0: c14a 42bf 2f2b e13e e900 41bf a7b0 a4be
000002c0: 6d35 d83e 03ff 093e 8e60 483f cae0 693d
000002d0: 2625 0dbe d383 343f 6f18 22bf d742 373e
000002e0: fb65 9cbd f232 883d c5e6 d03d a57e dfbe
000002f0: 68c7 013c 7b1a b5bf be94 23bf 6b78 32bf
00000300: 4f38 c7bc 856b afbe fa82 f63d f922 32bf
00000310: 4696 2a3e 3a89 29be 3dbb 91bd 5e84 a0be
00000320: 0b94 49bd 8454 9c3e b016 ccbb 7283 adbd
00000330: dbe6 553d 8f95 6fbe 0779 e3be c2af 943e
00000340: 9a8e 883d f6d6 cebd 96c1 823d 845c 6dbe
00000350: f7b3 c3be 3b45 843d aecb f03e 0afa 4ebe
00000360: 4783 b03d aeaf 9f3d 69be 7f3f 5765 01bf
00000370: 0961 9f3d a663 d63d 5044 6c3e 5c6b 6a3e
00000380: 6f8f ebbe a509 11be 39c0 153c 0404 a13e
00000390: bb6e 8c3e b4a0 bfbe 0c01 87bf 0352 13be
000003a0: 3641 c3be 8df3 943e 5070 913c d4f2 2ebe
000003b0: 842e 0c3c 6f85 f03d 25f0 6dbe 80a8 503e
000003c0: 17ab 69be 14d9 fc3d dfed 58be 1244 c43e
000003d0: 2554 1c3e 2943 b53e efcd babe 4319 dc3c
000003e0: e600 ccbd 06bb 1bbf 56b9 cbbe 7d0c 0e3f
000003f0: c28d 64be c27f 3f3e 36ea d2bd 0a96 11be

dense3.bias f4 [100]
-0.73449147 -0.2992723 0.09412945 -0.20962656 -0.18261911 -0.065035716 -0.073551536 0.013352861
0.4210617 0.19504282 -0.0743603 0.41932878 -0.08569872 -0.45077127 0.0052492134 -0.68517894
0.21970205 0.47054726 -0.02415348 -0.43073526 0.19759367 0.44157693 0.32290906 0.4692859
0.3700145 -0.13677931 -0.22382972 0.20902804 -0.015497687 0.3448953 0.092182875 0.5828142
0.2336148 -0.10421612 0.55597776 -0.15523894 -0.41749465 -0.33003494 -0.3957807 -0.076920286
0.009491282 -0.48419532 -0.07406963 -0.044104896 -0.26853785 0.51606566 -0.1599095 0.42394802
0.052792408 -0.3078824 1.035242 -0.0888223 -0.18933912 0.13990071 -0.5425457 0.3124281
0.3606449 0.20895746 -0.06696404 -0.07023022 0.04826705 -0.3652453 0.0109781725 -0.046737872
0.14666378 -0.04121845 -0.28125983 -0.2169972 -0.8362546 -0.11619001 0.43895116 -0.24798591
0.08880469 -0.59705925 -0.27783707 -0.10620362 -0.68144184 0.1597523 -0.046840616 0.26926327
-0.12494755 -0.37196514 -0.28538316 0.0010694953 -0.450551 0.4942549 -0.119296215 -1.2907448
0.13608196 -0.2173374 -0.05672927 0.58953565 -0.17946947 0.09599364 0.66816163 0.37666616
0.06333277 -0.07472345 -0.06085977 -0.021174872
00000000: a207 3cbf 383a 99be f1c6 c03d 58a8 56be
00000010: 8100 3bbe 7231 85bd 30a2 96bd f5c5 5a3c
00000020: 6695 d73e 4eb9 473e 374a 98bd 43b2 d63e
00000030: cf82 afbd 7ecb e6be 9801 ac3b e367 2fbf
00000040: 93f9 603e 92eb f03e 85dd c5bc 5589 dcbe
00000050: ff55 4a3e 5f16 e23e 5654 a53e 3e46 f03e
00000060: 8a72 bd3e e00f 0cbe 9e33 65be 720b 563e
00000070: 03ea 7dbc 1e96 b03e 60ca bc3d 5033 153f
00000080: b838 6f3e 436f d5bd 8f54 0e3f f5f6 1ebe
00000090: dcc1 d5be 57fa a8be c5a3 cabe 6288 9dbd
000000a0: 5281 1b3c 73e8 f7be d1b1 97bd 56a7 34bd
000000b0: cb7d 89be e11c 043f 51bf 23be b70f d93e
000000c0: da3c 583d c3a2 9dbe cf82 843f 77e8 b5bd
000000d0: 1de2 41be 2242 0f3e 46e4 0abf 93f6 9f3e
000000e0: 73a6 b83e f2f8 553e 7124 89bd ddd4 8fbd
000000f0: acb3 453d 6f01 bbbe cbdd 333c 3670 3fbd
00000100: 082f 163e add4 28bd 4a01 90be 8434 5ebe
00000110: c814 56bf 07f5 edbd 35be e03e 05f0 7dbe
00000120: 3cdf b53d e0d8 18bf a940 8ebe 4981 d9bd
00000130: f972 2ebf 1b96 233e f2db 3fbd e0dc 893e
00000140: 80e4 ffbd 3772 bebe be1d 92be 4f2e 8c3a
00000150: 9fae e6be fa0e fd3e 9351 f4bd 2037 a5bf
00000160: 1259 0b3e b28d 5ebe f35c 68bd cfeb 163f
00000170: d8c6 37be 5098 c43d a40c 2b3f 63da c03e
00000180: 9cb4 813d 9c08 99bd 1848 79bd ed76 adbc

dense4.weight f4 [2, 100]
0.44395974 -2.832663 -0.38790172 0.43821886 -0.39555088 -0.19356881 0.54141873 -0.28863004
-1.0073367 0.6155655 1.3048638 0.047124445 -0.30192095 0.12740624 -0.002967412 1.8141911
-1.4560579 0.12581556 -0.20779313 0.585852 -0.20325272 0.42076313 0.702894 -0.5746047
1.0009727 -0.09090517 0.10674781 0.34025544 -1.1112512 0.011531153 0.53542525 -0.6183623
-7.52536 -0.33106124 -0.1871499 3.0227752 -5.1518154 -3.7189474 3.4857612 -0.2963751
-0.35148016 -0.9073807 -0.23679455 -0.50556 -4.048253 -0.8028468 -0.1712347 -0.056001477
0.69332707 -0.85299474 -8.147351 0.046274398 -0.046209242 0.322047 0.8965925 -0.21005826
-0.29104128 -0.9239172 -0.21655338 0.28758383 0.44627964 -8.446903 -0.8910573 -0.10725119
-0.0028446217 0.17921194 0.16617937 -3.143929 0.88818896 -2.2833042 -0.8383631 3.3281615
1.0611126 -0.22834274 -0.2056594 0.5088438 0.39647532 0.13898483 -0.044663683 0.5031147
-1.6995882 -1.0265023 5.604762 0.66767776 -0.28886664 0.4714812 -5.539843 1.6818728
-0.48499465 -4.793482 0.18600397 -0.15516402 -2.5306184 0.14209498 -0.6649526 -0.15655853
-0.41734096 -0.73631227 0.0069273324 2.409685 -0.051811825 4.4757466 0.91596663 0.40075368
0.52405435 -0.00818613 -0.13696426 -1.2699068 0.54859984 -0.47411516 -0.63816905 0.08911623
0.18969779 -0.068049066 0.0043423898 0.5589544 0.8901492 0.053027775 -0.005428659 -0.38023433
-0.6574566 0.117680624 0.3867921 -0.367049 -1.237582 -0.12756966 -0.066100284 0.25422707
1.4166425 0.07049061 0.27139607 0.3099284 5.179924 0.46930316 -0.24508244 -4.4978676
4.2224903 2.3968644 -4.7646008 0.38714454 0.35731488 0.090054296 0.14912324 -0.6539709
1.1540353 0.8392915 -0.15336168 0.1791638 -0.7254401 4.4542894 3.7606614 -0.4205173
-0.42071337 -0.09148691 0.6145539 -0.09861808 0.17953384 0.7376485 0.14907752 0.07967701
-0.47528106 7.0487237 -2.0966568 -0.16815282 0.0036801503 -0.1298245 -0.22781292 1.4262538
0.97989845 1.4578264 0.6602291 4.568876 -0.8106407 -0.20517136 0.1323678 -0.12487667
-0.43936458 -0.2892725 0.12651354 -0.21119842 0.87870383 0.60735744 0.10337338 -0.38036424
-0.04724961 -0.5159434 3.763872 1.8211006 1.0733216 -1.2534707 -0.2136259 0.1910155
-4.5300193 -0.4093753 0.8470951 -0.35781884 -0.4224056 -0.0062874923 -0.03200085 -1.931568
00000000: b14e e33e 5a4a 35c0 0e9b c6be 395e e03e
00000010: a585 cabe e736 46be 6b9a 0a3f 51c7 93be
00000020: 69f0 80bf b395 1d3f c705 a73f 9005 413d
00000030: 6295 9abe c876 023e e978 42bb 6a37 e83f
00000040: 1b60 babf cbd5 003e b9c7 54be 66fa 153f
00000050: 7b21 50be 446e d73e dcf0 333f 4b19 13bf
00000060: e01f 803f 7d2c babd 999e da3d f635 ae3e
00000070: 7b3d 8ebf 29ed 3c3c a111 093f fe4c 1ebf
00000080: c0cf f0c0 dc80 a9be 39a4 3fbe 2675 4140
00000090: acdb a4c0 3c03 6ec0 b616 5f40 7abe 97be
000000a0: 35f5 b3be 1a4a 68bf 457a 72be 616c 01bf
000000b0: 4a8b 81c0 5e87 4dbf 2658 2fbe ce61 65bd
000000c0: e27d 313f dd5d 5abf 8d5b 02c1 398a 3d3d
000000d0: e745 3dbd 58e3 a43e 1687 653f 8319 57be
000000e0: 5d03 95be d685 6cbf 2bc0 5dbe 303e 933e
000000f0: c47e e43e 8426 07c1 551c 64bf 83a6 dbbd
00000100: d56c 3abb 5683 373e ed2a 2a3e 2236 49c0
00000110: 5a60 633f a821 12c0 f79e 56bf 9900 5540
00000120: 8ad2 873f aed2 69be 6198 52be 9643 023f
00000130: d0fe ca3e 0a52 0e3e 44f1 36bd 20cc 003f
00000140: 1b8c d9bf 6d64 83bf 365a b340 eeec 2a3f
00000150: 54e6 93be fc65 f13e 6546 b1c0 9c47 d73f
00000160: 3851 f8be 3464 99c0 d377 3e3e 51e3 1ebe
00000170: a7f5 21c0 5981 113e 553a 2abf e150 20be
00000180: b7ad d5be f67e 3cbf adfe e23b 4738 1a40
00000190: a338 54bd 5139 8f40 ca7c 6a3f 962f cd3e
000001a0: 6d28 063f 1e1f 06bc 5c40 0cbe 4e8c a2bf
000001b0: 0a71 0c3f 39bf f2be 0c5f 23bf 9282 b63d
000001c0: 2340 423e 4f5d 8bbd 9b4a 8e3b a317 0f3f
000001d0: d1e0 633f a733 593d e4e2 b1bb 13ae c2be
000001e0: 134f 28bf 8a02 f13d 9d09 c63e d9ed bbbe
000001f0: 1669 9ebf 9fa1 02be 965f 87bd 0d2a 823e
00000200: 8b54 b53f 625d 903d 6df4 8a3e efae 9e3e
00000210: f0c1 a540 8148 f03e e4f6 7abe 88ee 8fc0
00000220: a41e 8740 3a66 1940 9c77 98c0 cf37 c63e
00000230: faf1 b63e 636e b83d c3b3 183e a36a 27bf
00000240: 6eb7 933f cfdb 563f d80a 1dbe b776 373e
00000250: 71b6 39bf 8a89 8e40 adae 7040 0b4e d7be
00000260: be67 d7be 7d5d bbbd 6853 1d3f 47f8 c9bd
00000270: b8d7 373e 88d6 3c3f c7a7 183e b32d a33d
00000280: 0a58 f3be 258f e140 a02f 06c0 4130 2cbe
00000290: ad2e 713b b7f0 04be ca47 69be 7c8f b63f
000002a0: a0da 7a3f 0e9a ba3f c604 293f 3b34 9240
000002b0: 2686 4fbf 7118 52be 6d8b 073e 57bf ffbd
000002c0: 65f4 e0be 861b 94be c48c 013e 6644 58be
000002d0: bcf2 603f c77b 1b3f 6cb5 d33d 1abf c2be
000002e0: cf88 41bd de14 04bf 47e3 7040 d319 e93f
000002f0: 9a62 893f ba71 a0bf bfc0 5abe 9199 433e
00000300: ebf5 90c0 a499 d1be 39db 583f 0834 b7be
00000310: 8c45 d8be 4f07 cebb 5313 03bd 9f3d f7bf

dense4.bias f4 [2]
0.0016241462 -0.0002061095
00000000: 4ee1 d43a 191f 58b9
