public/models/allen-celltypes+human-cortex+various-cortical-areas-pumap.onnx (onnx, 87953 bytes, 8 tensors)

functional_2_1/sequential_1/z_1/Cast/ReadVariableOp:0 f4 [100, 2]
-0.12375658 0.6115469 -0.16390237 -0.14461225 0.059512574 0.008364937 -0.46949154 0.3942662
-0.7338327 0.62830293 0.27388167 -0.15776777 -0.60549676 -0.7080627 0.030368859 -0.07005269
0.006958693 0.013200456 0.7303545 0.024540666 -0.031088814 0.019089311 -0.55161047 0.54876095
-0.6717142 0.018906724 0.07562539 1.1941867 -0.38976064 -0.11024007 -1.1767318 0.12462598
-0.685541 -0.043815583 -0.09671327 -0.3086722 -0.5956494 0.12202897 0.5417073 0.79189163
0.99197954 -0.53415334 0.24054703 -0.035988223 0.03644493 0.14050886 0.058476645 0.04030353
-0.02283848 -0.048642844 -0.031138308 -0.35123855 -0.5650417 0.2867448 0.4553395 0.7723941
0.0102516245 0.3245065 0.19271779 -0.2515858 0.0052230377 -0.5328657 -0.26268575 -0.34140688
-0.0071704625 -0.0003797746 1.2451419 -0.5332724 0.7990772 0.7618453 -0.35614997 -0.26043913
0.6108856 -1.4565195 0.15438803 0.05727089 0.36464372 -0.3199757 -0.30228654 0.033240963
-0.6606756 -0.29611155 1.1180413 0.18936808 0.4460982 -0.13447167 -0.14413849 0.4175636
-0.5003679 0.18529275 0.19450566 -0.27697608 0.14705122 -0.28040007 0.05946245 0.015592463
0.1816087 0.21831751 -0.035691623 0.021334445 0.13515346 -0.6980382 -1.0472932 0.09355776
-1.3824873 -0.8841892 -0.60607004 -1.2024851 0.73353183 -0.40832043 -0.34746295 -0.2798159
-0.008945569 -0.18128118 -0.40136206 -0.40930903 0.0972592 -0.17648649 -0.43013734 0.07997699
-0.5235605 0.14641139 -0.5019832 0.5315471 0.5946792 -0.8253255 -0.13351452 0.19579624
0.15040246 -0.18493104 1.7564145 -0.6150818 -0.48319957 -0.2094793 0.64685065 1.1481035
-0.22042608 -0.3179861 -0.19249703 0.18551593 0.22138517 0.72243416 1.9020506 -1.8705064
0.002037829 -0.01580297 0.9455705 0.84602493 -0.74477744 -1.0892103 0.007962245 -0.25730175
-0.7732081 1.2199541 0.9943652 0.0881665 0.18187705 0.1748976 0.43773067 -0.4056419
0.6496735 0.033706225 0.34632048 0.9059452 -0.9303543 -0.16773868 -0.19438243 -0.12965962
-0.33144835 -0.040927056 -0.82045573 -0.17546535 0.74772066 0.040408388 0.20832762 0.33602104
0.57245016 -0.91132236 1.0891076 -0.80448663 0.8256326 -0.13737854 -0.47847897 -0.12981
0.6677287 0.82725066 0.65893996 0.38566554 0.55146444 0.8874593 -0.033564333 0.27205083
0.19123176 0.00820731 -0.08244099 -0.09359204 -0.42060685 1.0246291 0.07792593 0.46692
00000000: 1774 fdbd 568e 1c3f 06d6 27be 3c15 14be
00000010: 75c3 733d 170d 093c 3261 f0be 42dd c93e
00000020: 76dc 3bbf 76d8 203f 383a 8c3e e08d 21be
00000030: d601 1bbf 9943 35bf 1dc8 f83c c977 8fbd
00000040: bf05 e43b ba46 583c 83f8 3a3f 8209 c93c
00000050: f8ad febc 3061 9c3c 5836 0dbf 997b 0c3f
00000060: 76f5 2bbf 46e2 9a3c 7ce1 9a3d 1cdb 983f
00000070: b58e c7be 8cc5 e1bd 269f 96bf e83b ff3d
00000080: 9d7f 2fbf f877 33bd 9b11 c6bd 480a 9ebe
00000090: 7b7c 18bf 53ea f93d 54ad 0a3f 69b9 4a3f
000000a0: 5ff2 7d3f 46be 08bf f651 763e 6368 13bd
000000b0: 4747 153d 8ee1 0f3e 3585 6f3d 5015 253d
000000c0: c417 bbbc b83d 47bd c415 ffbc 8ad5 b3be
000000d0: 93a6 10bf 37d0 923e 4222 e93e 9fbb 453f
000000e0: 6ef6 273c b725 a63e d057 453e dbcf 80be
000000f0: 0426 ab3b e369 08bf bf7e 86be e2cc aebe
00000100: 33f6 eabb 7c1c c7b9 cf60 9f3f 8a84 08bf
00000110: 5390 4c3f 4b08 433f 4a59 b6be 4758 85be
00000120: 0063 1c3f 3b6f babf e517 1e3e e194 6a3d
00000130: 95b2 ba3e dbd3 a3be 4dc5 9abe ad27 083d
00000140: 0922 29bf ef9b 97be fa1b 8f3f b5e9 413e
00000150: fc66 e43e f1b2 09be 0a99 13be e5ca d53e
00000160: 1c18 00bf 62bd 3d3e 7e2c 473e cfcf 8dbe
00000170: 9894 163e 9990 8fbe e68e 733d 8877 7f3c
00000180: a2f7 393e a08e 5f3e 6131 12bd 93c5 ae3c
00000190: ab65 0a3e a2b2 32bf b40d 86bf 369b bf3d
000001a0: 58f5 b0bf 395a 62bf 6827 1bbf 08eb 99bf
000001b0: bec8 3b3f 600f d1be aae6 b1be 0844 8fbe
000001c0: 7090 12bc c6a1 39be 547f cdbe f490 d1be
000001d0: d52f c73d e0b8 34be f63a dcbe faca a33d
000001e0: 1008 06bf deec 153e f981 00bf 7913 083f
000001f0: e53c 183f 8848 53bf 08b8 08be cf7e 483e
00000200: 1a03 1a3e 905e 3dbe 31d2 e03f 0076 1dbf
00000210: ef65 f7be be81 56be 0198 253f 0ef5 923f
00000220: 60b7 61be 13cf a2be f11d 45be e3f7 3d3e
00000230: cbb2 623e 72f1 383f 6576 f33f c16c efbf
00000240: 198d 053b 3b75 81bc e910 723f 1795 583f
00000250: bca9 3ebf 3e6b 8bbf 1374 023c 0ebd 83be
00000260: f7f0 45bf 7527 9c3f b88e 7e3f a390 b43d
00000270: fa3d 3a3e 5b18 333e 3c1e e03e 4cb0 cfbe
00000280: 0151 263f 8a0f 0a3d eb50 b13e 06ec 673f
00000290: b32b 6ebf b0c3 2bbe 300c 47be 7ec5 04be
000002a0: 99b3 a9be 21a3 27bd 6309 52bf 30ad 33be
000002b0: 9f6a 3f3f 4483 253d d653 553e f30a ac3e
000002c0: 188c 123f 6c4c 69bf e167 8b3f d6f2 4dbf
000002d0: a85c 533f f6ac 0cbe 32fb f4be eaec 04be
000002e0: 45f0 2a3f b3c6 533f 4ab0 283f f475 c53e
000002f0: c62c 0d3f 8830 633f c17a 09bd 3f4a 8b3e
00000300: 42d2 433e f477 063c d2d6 a8bd 2fad bfbd
00000310: c859 d7be 0c27 833f a197 9f3d 2310 ef3e

functional_2_1/sequential_1/z_1/BiasAdd/ReadVariableOp:0 f4 [2]
3.0069961e-05 0.00364202
00000000: c03e fc37 f5ae 6e3b

functional_2_1/sequential_1/dense_2_1/Cast/ReadVariableOp:0 f4 [100, 100]
-0.20688176 0.0582575 0.03405427 -0.2619848 0.26028982 0.027417956 0.14179824 0.037922718
0.001815659 0.008625627 0.17347912 0.10342665 0.2676718 -0.06210576 -0.8697998 -0.4747327
0.09609483 -0.5147723 -0.12373796 -0.21470426 -0.058189854 0.24141702 -0.29119498 -0.0068366784
0.17059042 -0.07338783 -0.49562824 -0.6764697 0.26329398 0.6739332 0.25008237 -1.0764174
0.25216088 -0.3669196 0.86881256 0.374105 0.2157934 0.09689168 -1.6796608 0.62865293
0.2819428 -0.032131188 -0.1784215 -0.69932294 0.009891367 0.49213067 0.039731834 -0.014252797
0.19983765 0.21709915 0.18663739 -0.5716695 -0.78374773 -0.6034325 -1.5839002 -0.11607279
0.08690832 -0.25312582 0.063353084 -0.20091292 0.04523489 0.011471974 -0.63346535 -0.0078070955
-0.044789437 0.43811905 0.4307856 -0.8112577 0.2667716 -0.015843488 -1.6883787 -0.41678482
0.027812464 -0.19620755 0.4311753 0.40044793 -0.4336901 -0.35828835 0.13135567 -0.3587127
-0.9424823 -0.2344566 -0.0915768 0.32921985 0.35022888 -0.54905814 -0.01858795 -0.09368269
0.54739213 0.26685613 -0.2718803 -0.21261711 -0.24508263 0.25104085 0.18086296 -0.7530931
-0.025043672 0.3525258 -0.8001884 -0.060543798 -0.26440817 -0.1330884 -0.25552318 -0.10510985
-0.46558574 -0.34668106 -0.4442992 -0.07929834 -0.16689675 -0.22915544 -0.14472304 -0.09155404
-0.108242474 1.2244104 1.2824531 0.22364067 -0.3417987 -0.6868391 0.06988169 -0.0636798
-0.20163807 -0.025878597 0.17084673 -0.047788337 -0.24326748 -0.104852706 0.6831634 0.47776803
0.30940923 -0.40118217 -0.111902155 0.19864696 -0.33251932 -0.21632433 0.029859025 -0.16415137
-0.32947543 0.0021022428 0.13127308 -0.1755788 0.76977 -1.9894773 -0.2394007 0.23081636
-0.4846697 -0.20941198 -0.48736915 -0.5869814 -0.094234005 -0.32408902 -0.2849202 0.85753137
-0.2603785 -0.22713698 0.09066913 -0.26858866 -0.13200752 0.540149 -0.23613279 -0.44207397
-0.26980224 1.7284954 -0.13833004 -0.04718112 -0.1490074 0.03580797 0.7222002 0.3914566
-0.24201284 -0.3729532 0.5862973 -0.21599941 -0.4021132 0.36302668 -0.183412 -0.30832857
1.0556105 0.376757 0.0015538831 0.09056686 -0.37429324 0.78101206 -0.32985193 -0.16444118
-0.4967885 0.9551744 0.48129797 0.23108405 -0.37665564 -0.23269127 -0.035110295 -0.064640686
0.023587612 0.010784137 -0.6080582 -0.105330355 -0.09178294 -0.30335736 -0.33019444 0.01819517
0.20118836 0.04820831 0.006644355 0.30134445 0.3637472 0.34451583 -0.11115869 0.047598753
-0.17833036 -0.017109597 -0.12659031 -0.28904775 0.0046658656 0.12979384 0.19851756 -0.15227954
-0.12571111 -0.048681896 0.2522883 -0.34356475 -0.13651325 0.3835664 0.34315574 -0.0828784
-0.017371291 0.7556201 0.07470759 -0.8674196 -0.615317 0.39119768 -0.21300855 -0.1156242
-0.16726144 -0.12704505 -0.63961524 -0.045952443 0.095842674 0.068142936 0.037830036 0.038167298
0.39981675 0.17538445 0.8471345 0.22675617 0.44740054 -0.16654128 0.22333382 -0.22472334
0.12971069 -0.18082893 -0.24629647 -0.66520554 -0.8802104 -3.3206484 -0.30579516 -0.004381629
00000000: d0d8 53be 6b9f 6e3d 7d7c 0b3d df22 86be
00000010: b544 853e 9f9b e03c 8f33 113e da54 1b3d
00000020: 68fb ed3a 8052 0d3c 83a4 313e 5ad1 d33d
00000030: 470c 893e 9c62 7ebd 33ab 5ebf 2a10 f3be
00000040: 5ecd c43d 1ec8 03bf 546a fdbd 6fdb 5bbe
00000050: 7c58 6ebd 0636 773e 8217 95be 3706 e0bb
00000060: 41af 2e3e 5c4c 96bd fcc2 fdbe 1e2d 2dbf
00000070: 78ce 863e e386 2c3f cc0a 803e 0cc8 89bf
00000080: 3b1b 813e e3dc bbbe 806a 5e3f b18a bf3e
00000090: f2f8 5c3e 256f c63d 20ff d6bf 66ef 203f
000000a0: cf5a 903e fe9b 03bd 20b4 36be d406 33bf
000000b0: 660f 223c 8df8 fb3e d9bd 223d 9084 69bc
000000c0: 3ea2 4c3e 3d4f 5e3e df1d 3f3e ef58 12bf
000000d0: b1a3 48bf 8d7a 1abf 3ebd cabf 92b7 edbd
000000e0: fdfc b13d b599 81be 43bf 813d 1ebc 4dbe
000000f0: 3848 393d f2f4 3b3c c92a 22bf aad2 ffbb
00000100: 2175 37bd 2451 e03e ee8f dc3e 96ae 4fbf
00000110: 4a96 883e 34ca 81bc cb1c d8bf d264 d5be
00000120: f7d6 e33c a2ea 48be 02c3 dc3e 8307 cd3e
00000130: a10c debe 9271 b7be 1a82 063e 31a9 b7be
00000140: 8546 71bf 6415 70be 9e8c bbbd 818f a83e
00000150: 3351 b33e 138f 0cbf c245 98bc b6dc bfbd
00000160: e421 0c3f 5ea1 883e e533 8bbe 4db8 59be
00000170: f1f6 7abe 6d88 803e 2434 393e b6ca 40bf
00000180: 6328 cdbc 437e b43e 26d9 4cbf c6fc 77bd
00000190: 8260 87be 5348 08be efd3 82be d543 d7bd
000001a0: 4161 eebe 2e80 b1be 2f7b e3be 2b67 a2bd
000001b0: fbe6 2abe b9a7 6abe 4732 14be af80 bbbd
000001c0: 3bae ddbd 7bb9 9c3f 6c27 a43f 0f02 653e
000001d0: 3d00 afbe b0d4 2fbf 221e 8f3d 8e6a 82bd
000001e0: 367a 4ebe 5aff d3bc 72f2 2e3e b4bd 43bd
000001f0: 1c1b 79be 04bd d6bd cce3 2e3f 039e f43e
00000200: e36a 9e3e c067 cdbe f52c e5bd 1c6a 4b3e
00000210: f93f aabe 2084 5dbe ea9a f43c 4c17 28be
00000220: 01b1 a8be c8c5 093b 736c 063e eeca 33be
00000230: a60f 453f 31a7 febf 7525 75be 205b 6c3e
00000240: a026 f8be 1870 56be 7388 f9be 6a44 16bf
00000250: c2fd c0bd ffee a5be 0fe1 91be 2d87 5b3f
00000260: 5550 85be 9996 68be bdb0 b93d 7484 89be
00000270: fb2c 07be 3447 0a3f cbcc 71be 8557 e2be
00000280: 8523 8abe 563f dd3f 64a6 0dbe fd40 41bd
00000290: 6595 18be 61ab 123d 1de2 383f 006d c83e
000002a0: 37d2 77be b9f3 bebe 9417 163f f32e 5dbe
000002b0: c8e1 cdbe a2de b93e 5bd0 3bbe 3edd 9dbe
000002c0: 3f1e 873f 4be6 c03e aaab cb3a 1e7b b93d
000002d0: 5da3 bfbe 68f0 473f 5ae2 a8be 4563 28be
000002e0: 105b febe 4f86 743f b06c f63e 4ca1 6c3e
000002f0: 02d9 c0be 9f46 6ebe d0cf 0fbd 5662 84bd
00000300: cf3a c13c f3af 303c b4a9 1bbf 71b7 d7bd
00000310: b2f8 bbbd a851 9bbe 3f0f a9be 0a0e 953c
00000320: 5204 4e3e 1476 453d e4b8 d93b d249 9a3e
00000330: 133d ba3e 6164 b03e 2ba7 e3bd e9f6 423d
00000340: 3c9c 36be 6d29 8cbc e4a0 01be 11fe 93be
00000350: 1ee4 983b ade8 043e 3048 4b3e 2bef 1bbe
00000360: 6aba 00be ab66 47bd ef2b 813e b8e7 afbe
00000370: 21ca 0bbe d162 c43e 1cb2 af3e 27bc a9bd
00000380: 3d4e 8ebc 5270 413f 4b00 993d 360f 5ebf
00000390: 6a85 1dbf 104b c83e ea1e 5abe 61cc ecbd
000003a0: 9546 2bbe 1918 02be d3bd 23bf a138 3cbd
000003b0: 2a49 c43d 868e 8b3d abf3 1a3d 5055 1c3d
000003c0: c8b4 cc3e fb97 333e cedd 583f c532 683e
000003d0: af11 e53e cc89 2abe 9fb1 643e e01d 66be
000003e0: e1d2 043e 382b 39be 2435 7cbe e94a 2abf
000003f0: 7855 61bf 8185 54c0 2f91 9cbe c593 8fbb

functional_2_1/sequential_1/dense_2_1/BiasAdd/ReadVariableOp:0 f4 [100]
0.7667183 -0.055879008 -0.058109123 0.64470327 -0.1035477 -0.07946272 0.2664729 -0.25244638
0.28579095 0.11707882 -0.0100324135 0.69366384 0.1701258 -0.0013961676 -0.10565012 0.00425762
0.5968996 0.15785722 0.3387202 -0.105401196 0.34842196 0.054535158 0.47769874 -0.03097226
0.5696284 0.28839913 0.63948274 0.15533155 -0.44594702 -0.20647377 -0.18625785 0.2919037
0.31515402 0.21361236 0.011795991 0.20736659 0.23342195 -0.03696263 0.44057953 0.13449302
0.10416929 0.15489843 0.44804114 0.29606628 0.51638025 0.26798233 0.38429368 0.12093176
0.3345847 0.22991699 0.44801444 -0.0715686 -0.07502594 -0.24256952 0.26490623 0.163239
-0.09999065 -0.23609433 -0.04487996 0.6399897 0.63349366 0.02037471 0.14379159 -0.04584951
0.2256692 0.17690733 -0.10286196 0.07154566 0.41021025 0.28755265 -0.017675389 0.3189967
0.2696374 -0.054911964 0.06457026 0.096403666 -0.011253319 -0.081823215 -0.031643704 0.43618217
0.54340243 0.5140064 0.38019687 0.4517395 0.82142264 0.04084235 0.1464162 0.32856804
0.008842857 0.03591279 0.19185793 0.27981928 -0.2161359 0.30984357 -0.061611403 0.41259336
-0.05024286 0.30909374 0.13157365 -0.23950325
00000000: a747 443f 63e1 64bd d503 6ebd 460b 253f
00000010: d110 d4bd 5abd a2bd 236f 883e a740 81be
00000020: 3153 923e 05c7 ef3d fe5e 24bc f493 313f
00000030: 7535 2e3e 9cff b6ba 175f d8bd 8183 8b3b
00000040: 6ace 183f 53a5 213e bc6c ad3e 95dc d7bd
00000050: 5d64 b23e 4260 5f3d ee94 f43e 89b9 fdbc
00000060: 2bd3 113f 0da9 933e 24b5 233f 3c0f 1f3e
00000070: 2b53 e4be dc6d 53be 61ba 3ebe 6774 953e
00000080: de5b a13e 33bd 5a3e f943 413c e857 543e
00000090: 2a06 6f3e 2066 17bd a493 e13e 8ab8 093e
000000a0: b556 d53d b29d 1e3e a665 e53e 0096 973e
000000b0: 7f31 043f fb34 893e 24c2 c43e 12ab f73d
000000c0: b04e ab3e 5c6f 6b3e 2662 e53e 8f92 92bd
000000d0: 33a7 99bd 2564 78be caa1 873e 2028 273e
000000e0: e6c7 ccbd b6c2 71be 0dd4 37bd 5dd6 233f
000000f0: a42c 223f dde8 a63c 1a3e 133e b2cc 3bbd
00000100: d415 673e 3227 353e 4ba9 d2bd 8886 923d
00000110: 1407 d23e 1a3a 933e facb 90bc 8953 a33e
00000120: ea0d 8a3e 5eeb 60bd 6a3d 843d 496f c53d
00000130: d75f 38bc ee92 a7bd d49c 01bd 4553 df3e
00000140: 6c1c 0b3f ec95 033f 2aa9 c23e 664a e73e
00000150: c148 523f 4f4a 273d 21ee 153e 123a a83e
00000160: a1e1 103c 4a19 133d 6876 443e 7944 8f3e
00000170: bb52 5dbe d1a3 9e3e 3d5c 7cbd 703f d33e
00000180: 75cb 4dbd 8941 9e3e 3ebb 063e 5740 75be

functional_2_1/sequential_1/dense_1_2/Cast/ReadVariableOp:0 f4 [100, 100]
0.6524081 -0.65969557 -0.9130475 0.5429473 0.42621866 -0.3895465 -0.6283602 -0.28023908
0.5342672 -0.12419914 -0.08252669 -1.2513973 0.7911713 0.7830617 -0.07338464 0.5037112
1.0674546 0.6974763 0.4098757 -0.91963345 -0.12992957 0.06761558 0.12072307 -0.7492314
-0.22703065 -0.4179105 -2.188329 0.14166579 1.1622893 -0.026986599 -0.7612992 0.03218535
0.40806425 0.23836952 -0.0005154016 -0.4720029 -1.3531597 -0.49323034 3.1621008 2.8139176
0.42370412 0.49192384 -1.1109554 -0.7794689 -0.085500866 0.21846075 1.1055912 0.16635212
-0.71654326 -0.855206 0.80921036 -2.4107573 -2.7857294 0.13563544 -0.53955096 0.5235888
0.45842874 0.48247173 1.1672305 0.3997313 1.2140005 0.20248897 -0.19973865 0.18466559
0.34244686 0.084944405 0.44308868 0.21657263 0.08399515 0.09483791 1.2978806 0.51000714
1.0885668 2.1902485 0.43784487 -0.059699688 0.05850201 0.026232166 0.019003665 -0.14053193
1.7763067 1.1449035 -0.55689853 -0.67186564 -0.6858033 -0.14657782 2.5094583 0.7303209
0.08809643 1.5897205 0.18385951 -0.16403626 0.16030903 0.82211226 1.3174675 1.3286791
1.5999091 0.068882324 0.2257039 -0.53040135 -0.38135904 0.6824079 -0.61675864 1.2006619
-0.06778478 -0.4929356 -0.9300508 -0.5074061 0.35697782 1.035838 -0.25529942 -0.25542632
-1.2195973 1.0611693 -0.018975597 -0.06855472 0.5421538 0.044522945 -0.04401059 -0.68640065
-0.1511478 -0.13832268 0.5383005 2.776589 -0.019040698 -0.1273075 -0.24638072 0.13721961
-0.28078443 -0.19405285 0.47408214 0.49491802 -0.37190974 0.18478696 0.1495953 -0.41140103
-0.23451246 1.1349641 -0.057488967 -0.24618214 -0.119485036 -0.067015365 0.49855864 0.26634628
-0.21424046 0.039483383 -0.7239028 0.7126192 -0.68390644 -0.52696687 -0.034401853 -1.2018106
-1.1069062 -0.077162236 -0.035530224 0.22891048 -3.8584533 0.57012767 -0.08543667 -0.057287943
-2.7288496 -0.29605138 0.783733 0.046126988 0.0919082 -0.08854357 0.16080382 -0.062997095
0.0822689 0.36462188 0.28944793 -0.27591768 0.06320574 0.7172829 -0.161574 0.46696416
-0.7680793 -0.022616535 0.1015095 0.5662755 0.2544209 0.47463727 0.13701266 -0.008258732
0.23853664 -0.22518519 3.4713488 -0.2933568 -0.41056427 0.030651929 -0.10794159 -0.3817411
0.14492963 0.10906742 0.15470402 -0.37934738 -0.028004542 0.24650984 -0.09289023 1.4371588
-0.42287424 0.21718822 -0.03414614 0.56982744 -0.23508622 -0.08695769 0.15097152 -0.14141084
-0.49408072 0.14880857 0.012218694 0.513267 0.3941054 0.20851088 0.5998019 -0.36794195
0.3375127 0.7219044 -0.0046222406 0.34084746 -0.039288104 0.112641 -0.0031907065 -0.27753
-0.4392631 0.00630314 -0.16613625 0.092498295 -0.12213778 0.46442974 -0.29975948 0.09267991
-0.18148412 0.4592319 0.13299942 0.4942397 -0.35346118 1.0581096 -0.15818647 -0.3789593
0.8702335 -0.17808379 0.3969947 -0.036124863 -0.3216643 -0.18346989 -0.22761023 -0.30689085
0.0989989 0.12497496 0.28146 -0.2916568 -0.8635217 0.079532385 0.18919429 -0.14950822
00000000: 3804 273f cfe1 28bf 7bbd 69bf 98fe 0a3f
00000010: 5539 da3e a472 c7be 37dc 20bf 7f7b 8fbe
00000020: bcc5 083f 1e5c febd c103 a9bd c92d a0bf
00000030: 348a 4a3f bb76 483f b04a 96bd 38f3 003f
00000040: 5aa2 883f cf8d 323f 3adb d13e 196d 6bbf
00000050: 420c 05be 0a7a 8a3d a83d f73d a1cd 3fbf
00000060: b97a 68be 5df8 d5be 950d 0cc0 d610 113e
00000070: e5c5 943f 0013 ddbc 81e4 42bf c9d4 033d
00000080: cced d03e 2417 743e 041c 07ba 5daa f1be
00000090: 5634 adbf b088 fcbe dc5f 4a40 3a17 3440
000000a0: bfef d83e 71dd fb3e c933 8ebf 468b 47bf
000000b0: 141b afbd 2db4 5f3e 0384 8d3f 3658 2a3e
000000c0: 616f 37bf c8ee 5abf 6928 4f3f d949 1ac0
000000d0: 6449 32c0 04e4 0a3e 0320 0abf ea09 063f
000000e0: 2cb7 ea3e 8906 f73e cf67 953f 95a9 cc3e
000000f0: 5e64 9b3f 4559 4f3e 4a88 4cbe fa18 3d3e
00000100: 3255 af3e 55f7 ad3d 85dc e23e 37c5 5d3e
00000110: a605 ac3d 613a c23d f420 a63f d48f 023f
00000120: 2856 8b3f 082d 0c40 342d e03e a987 74bd
00000130: ce9f 6f3d d7e4 d63c 93ad 9b3c 9ae7 0fbe
00000140: 055e e33f 338c 923f e790 0ebf 63ff 2bbf
00000150: ce90 2fbf 7f18 16be f79a 2040 4ff6 3a3f
00000160: e76b b43d f67b cb3f ab45 3c3e 1ff9 27be
00000170: 0d28 243e f375 523f c6a2 a83f 2812 aa3f
00000180: d2c9 cc3f 2d12 8d3d ec1e 673e 62c8 07bf
00000190: 7e41 c3be 49b2 2e3f e5e3 1dbf 4aaf 993f
000001a0: bfd2 8abd 0e62 fcbe cf17 6ebf 5ee5 01bf
000001b0: ccc5 b63e 5796 843f 9bb6 82be 3dc7 82be
000001c0: c41b 9cbf 65d4 873f b672 9bbc 6b66 8cbd
000001d0: 97ca 0a3f b15d 363d 7344 34bd f4b7 2fbf
000001e0: 7dc6 1abe 76a4 0dbe 10ce 093f a2b3 3140
000001f0: 3dfb 9bbc e65c 02be 3a4b 7cbe 4c83 0c3e
00000200: fac2 8fbe cab5 46be e5ba f23e e565 fd3e
00000210: f46a bebe cb38 3d3e 832f 193e 28a3 d2be
00000220: 0924 70be 8146 913f 8d79 6bbd 2c17 7cbe
00000230: 92b4 f4bd 5a3f 89bd 1443 ff3e 8a5e 883e
00000240: da61 5bbe 54b9 213d b251 39bf 366e 363f
00000250: 7e14 2fbf 4de7 06bf f5e8 0cbd eed4 99bf
00000260: 1aaf 8dbf 3c07 9ebd 2488 11bd 8267 6a3e
00000270: e6f0 76c0 e3f3 113f 6cf9 aebd c3a6 6abd
00000280: 79a5 2ec0 0c94 97be baa2 483f a7ef 3c3d
00000290: 5e3a bc3d 5556 b5bd c2a9 243e 9f04 81bd
000002a0: 997c a83d b8af ba3e 8532 943e 1545 8dbe
000002b0: 0372 813d da9f 373f a873 25be ed15 ef3e
000002c0: d8a0 44bf 5046 b9bc 36e4 cf3d 6ef7 103f
000002d0: 7543 823e a803 f33e 0c4d 0c3e a24f 07bc
000002e0: f342 743e f296 66be 942a 5e40 dd32 96be
000002f0: 7b35 d2be c119 fb3c 7b10 ddbd 9273 c3be
00000300: 6f68 143e bd5e df3d bb6a 1e3e d239 c2be
00000310: c869 e5bc 136d 7c3e 3c3d bebd d2f4 b73f
00000320: f982 d8be 9766 5e3e d3dc 0bbd 36e0 113f
00000330: 71ba 70be e016 b2bd 4798 1a3e 01ce 10be
00000340: 26f8 fcbe 4661 183e eb30 483c 7765 033f
00000350: 2fc8 c93e e083 553e 9e8c 193f e362 bcbe
00000360: 77ce ac3e bace 383f 2a76 97bb 8f83 ae3e
00000370: 90ec 20bd 53b0 e63d 2c1b 51bb 6a18 8ebe
00000380: 18e7 e0be 928a ce3b 9f1f 2abe bf6f bd3d
00000390: 5f23 fabd bcc9 ed3e 137a 99be f7ce bd3d
000003a0: f9d6 39be 7220 eb3e 0031 083e fc0c fd3e
000003b0: ddf8 b4be 2370 873f a2fb 21be f406 c2be
000003c0: 9fc7 5e3f 995b 36be e442 cb3e aaf7 13bd
000003d0: 2fb1 a4be 88df 3bbe a812 69be cc20 9dbe
000003e0: efbf ca3d dff2 ff3d 861b 903e 0a54 95be
000003f0: c20f 5dbf e0e1 a23d 26bc 413e af18 19be

functional_2_1/sequential_1/dense_1_2/BiasAdd/ReadVariableOp:0 f4 [100]
0.07701607 -0.53180516 0.49706158 -0.33645934 0.27238008 0.40168387 0.59459203 0.07902352
-0.064895175 -0.15005444 0.12319509 -0.01105164 0.25223064 -0.5285667 -0.4445159 0.34145153
0.29463476 0.03139625 0.046698786 0.24510714 -0.031723283 -0.042037033 -0.22687122 -0.37303087
0.3103291 0.15064496 -0.50137883 -0.02668114 0.071068816 0.22037166 0.14888588 -0.4289143
0.45937347 -0.08706299 -0.059753865 0.10658229 0.31645167 0.6541388 -0.1441441 0.104964375
-0.18030255 0.005041013 -0.27650717 0.063211724 0.27925372 0.048979856 0.25721452 0.22094615
0.6903364 0.20414501 0.022168722 0.3257259 0.064773805 -0.06496045 0.19462085 0.14383496
-0.050258156 0.21851873 -0.22113033 0.25385585 -0.23400453 -0.22561972 -0.047688734 -0.1404991
0.38382202 0.22860596 0.34584105 0.07689756 0.01231882 -0.050295092 -0.22982049 0.386524
-0.05955809 -0.12420784 0.16989523 0.3859766 0.039214775 0.11368266 -0.0423117 -0.027533634
-0.04867299 -0.12895308 0.3864615 0.38837078 0.4205971 0.30676153 0.22795397 0.1339763
-1.0164561 -0.15243724 0.246032 0.10316434 0.6434417 0.049632803 0.0068881926 0.20735735
0.06730571 -0.13814537 0.16789567 -0.049087577
00000000: 9aba 9d3d 6224 08bf db7e fe3e 6644 acbe
00000010: 6775 8b3e 82a9 cd3e 2f37 183f 15d7 a13d
00000020: c3e7 84bd dfa7 19be b54d fc3d f011 35bc
00000030: 6024 813e 2650 07bf 9797 e3be bcd2 ae3e
00000040: 5eda 963e 5b99 003d 3a47 3f3d 5efd 7a3e
00000050: 46f0 01bd 062f 2cbd ee50 68be e7fd bebe
00000060: 75e3 9e3e ac42 1a3e 5d5a 00bf 6892 dabc
00000070: 878c 913d 1ca9 613e 8a75 183e a89a dbbe
00000080: 0033 eb3e 154e b2bd 78c0 74bd d147 da3d
00000090: f405 a23e a475 273f 839a 13be 90f7 d63d
000000a0: 3ba1 38be 152f a53b 5992 8dbe 2675 813d
000000b0: 58fa 8e3e 1a9f 483d 9fb1 833e b53f 623e
000000c0: e3b9 303f 640b 513e 2e9b b53c 8cc5 a63e
000000d0: 21a8 843d fc09 85bd b04a 473e 7949 133e
000000e0: 7fdb 4dbd 60c3 5f3e fd6f 62be 65f9 813e
000000f0: e29e 6fbe db08 67be 4355 43bd ffde 0fbe
00000100: 5284 c43e ae17 6a3e 1412 b13e 787c 9d3d
00000110: e0d4 493c 3a02 4ebd 1056 6bbe 79e6 c53e
00000120: 2ff3 73bd ae60 febd 04f9 2d3e ba9e c53e
00000130: ac9f 203d 74d2 e83d 084f 2dbd 378e e1bc
00000140: 545d 47bd 470c 04be 48de c53e 89d8 c63e
00000150: 8158 d73e d90f 9d3e c46c 693e 1531 093e
00000160: 3c1b 82bf 8218 1cbe d0ef 7b3e d347 d33d
00000170: 98b8 243f c44b 4b3d 59b6 e13b 7c55 543e
00000180: 93d7 893d fb75 0dbe d8ec 2b3e 0e10 49bd

functional_2_1/sequential_1/dense_1/Cast/ReadVariableOp:0 f4 [8, 100]
0.17194112 -0.20242189 0.29936707 0.08295964 -0.003010408 0.38514227 -0.06386549 0.06569412
0.16342486 -0.2745337 -0.38913226 0.16872618 -0.28427964 0.18648721 -0.2981969 -0.27924085
-0.114266664 0.32550535 -0.01940547 -0.009870704 0.056559537 -0.2890425 -0.032320566 0.06943707
0.2610963 0.0021531011 0.24769557 0.06910905 0.14826714 -0.018802432 -0.13546313 0.12106044
-0.024118781 -0.14689049 0.2516482 0.08002487 -0.16108638 0.36132914 0.17479765 -0.55342394
-0.44767016 0.06426333 0.21271802 0.055971187 -0.18863244 -0.2419211 0.1307574 0.117715254
0.34716013 0.04388581 0.29708257 0.16415577 -0.22494414 0.045391984 0.19298892 -0.373139
0.007801344 0.06356456 0.44908422 0.06036365 -0.06196903 -0.3297566 -0.5074397 0.58077455
0.009661824 -0.20469493 0.2231882 0.7048597 0.05936125 0.016285177 0.008429088 0.01698114
0.3606651 0.15191017 0.4018522 -0.10096919 0.4580138 -0.14992951 0.23520574 -0.09261892
-0.55938727 0.12847824 -0.016190438 -0.27307713 0.14534687 -0.14349988 -0.6210258 -0.14471789
0.10135098 0.21682282 -0.018705228 0.2299436 -6.5974236e-05 -0.06526826 -0.26468533 -0.057356257
0.037324943 0.22680217 -0.09927726 0.45192137 0.052623887 0.1334786 -0.67135495 -0.081659295
-0.07174085 -0.13676074 -0.09033554 0.21918665 0.40295345 -0.35094324 0.3577851 0.014314335
0.05955617 0.38252452 0.04392373 -0.1924455 -0.25222543 0.2560933 -0.21481119 -0.0095173735
-0.4539414 0.11449364 -0.3320072 -0.17584874 -0.26262155 0.08449885 -0.011785706 0.23062776
0.18163839 -0.22299157 -0.29483563 -0.011730261 -0.07727322 -0.08042167 -0.23475455 -0.16023739
-0.28274593 -0.16450427 0.404924 0.26051036 0.118043855 -0.22716035 -0.08214087 0.050904576
0.07894143 0.17507559 -0.09334466 -0.26886064 -0.3455138 -0.16731773 0.041434333 0.32920668
-0.03973051 -0.11341238 0.019864881 -0.04083827 -0.20049408 0.35610732 -0.37408444 -0.2916016
-0.5867553 -0.16267411 -0.33716795 0.04700122 -0.29694015 0.12472637 0.06067343 -0.12199731
-0.3545883 -0.11057017 -0.014455871 -0.09085087 -0.3985127 -0.37156788 -0.70150596 -0.2120326
0.16383226 0.42799336 -0.28435174 -0.26172373 -0.004870405 -0.12811285 0.2016506 -0.27857512
0.011258443 0.35717517 0.1675506 0.2836106 0.27315235 0.08551143 0.36345673 -0.1700734
-0.19702563 -0.16388907 -0.0061775856 -0.15898213 -0.07131495 -0.31753513 0.23593646 -0.09815832
-0.3099509 -0.23683731 0.3293957 -0.14107853 0.0014579266 -0.43161252 -0.007786913 0.32632607
0.25482416 0.06889635 -0.14427349 0.08501375 0.053529117 -0.18207543 -0.40880075 0.0391347
0.34543175 0.18241055 0.25311044 0.24593602 0.47617584 -0.22178616 -0.17448415 0.070929766
-0.13998705 -0.035873115 0.19751385 0.14161432 0.10110957 0.030244552 -0.048021227 0.09401027
-0.17535898 0.25167912 -0.13117176 -0.13168178 0.016610479 0.29428208 -0.023008334 -0.35321715
0.1543503 -0.01277913 -0.011197635 0.1898745 -0.1395053 -0.17409772 0.20135911 0.08879248
0.12661128 0.033354364 -0.22248945 0.11042554 0.18689238 0.25830603 -0.0137804 -0.11357998
00000000: 5511 303e af47 4fbe a446 993e bee6 a93d
00000010: 444a 45bb 5e31 c53e e9cb 82bd a48a 863d
00000020: d958 273e ae8f 8cbe 583c c7be 8ec6 2c3e
00000030: 1a8d 91be 81f6 3e3e 44ad 98be a8f8 8ebe
00000040: a404 eabd a3a8 a63e 38f8 9ebc bcb8 21bc
00000050: f9aa 673d 61fd 93be 9262 04bd 0635 8e3d
00000060: 6aae 853e 0b1b 0d3b e8a3 7d3e 0c89 8d3d
00000070: 57d3 173e 8f07 9abc d9b6 0abe 89ee f73d
00000080: c094 c5bc 766a 16be 08d8 803e 14e4 a33d
00000090: d4f3 24be 2200 b93e 28fe 323e 31ad 0dbf
000000a0: 0635 e5be 7e9c 833d c1d2 593e 0b42 653d
000000b0: dd28 41be 2aba 77be 45e5 053e b214 f13d
000000c0: f9be b13e 9bc1 333d 351b 983e 7318 283e
000000d0: c257 66be f2ec 393d e39e 453e 130c bfbe
000000e0: 6ba2 ff3b 232e 823d 5eee e53e e03f 773d
000000f0: 3dd3 7dbd dbd5 a8be 91e7 01bf a4ad 143f
00000100: a14c 1e3c 8c9b 51be 738b 643e af71 343f
00000110: c824 733d 7e68 853c 281a 0a3c 081c 8b3c
00000120: 19a9 b83e 578e 1b3e 92bf cd3e efc8 cebd
00000130: c980 ea3e 1f87 19be c6d9 703e fdae bdbd
00000140: 0134 0fbf cd8f 033e cfa1 84bc c4d0 8bbe
00000150: cfd5 143e a2f1 12be 8cfb 1ebf ed30 14be
00000160: 1a91 cf3d cd06 5e3e b53b 99bc 5676 6b3e
00000170: a65b 8ab8 5eab 85bd d684 87be 65ee 6abd
00000180: 0ae2 183d d43e 683e e051 cbbd 3d62 e73e
00000190: 258c 573d 9dae 083e ebdd 2bbf fd3c a7bd
000001a0: deec 92bd 020b 0cbe d701 b9bd 7772 603e
000001b0: ea4f ce3e d5ae b3be 9c2f b73e ac86 6a3c
000001c0: 2cf1 733d 41da c33e 5ee9 333d 6f10 45be
000001d0: b123 81be a91e 833e 77f7 5bbe c2ee 1bbc
000001e0: 026b e8be a47b ea3d d9fc a9be b111 34be
000001f0: 5576 86be bc0d ad3d d518 41bc af29 6c3e
00000200: 6aff 393e e757 64be b2f4 96be 4830 40bc
00000210: 6c41 9ebd 1eb4 a4bd 7f63 70be 4515 24be
00000220: 13c4 90be cf73 28be 3352 cf3e 9d61 853e
00000230: fac0 f13d b99c 68be 7939 a8bd 5181 503d
00000240: 0bac a13d 0447 333e 7c2b bfbd 1aa8 89be
00000250: 2fe7 b0be 5755 2bbe 0cb7 293d c78d a83e
00000260: 76bc 22bd c044 e8bd adbb a23c 0846 27bd
00000270: 524e 4dbe b353 b63e ff87 bfbe ce4c 95be
00000280: 9835 16bf 0b94 26be 47a1 acbe 5a84 403d
00000290: 8a08 98be 8a70 ff3d b484 783d bad9 f9bd
000002a0: 998c b5be 9d72 e2bd 51d8 6cbc 0510 babd
000002b0: db09 ccbe 253e bebe e595 33bf 131f 59be
000002c0: a5c3 273e f221 db3e 8d96 91be a700 86be
000002d0: eb97 9fbb 0430 03be 7f7d 4e3e 66a1 8ebe
000002e0: 5575 383c aadf b63e 6292 2b3e 6935 913e
000002f0: a0da 8b3e 9e20 af3d 0017 ba3e b927 2ebe
00000300: 16c1 49be 89d2 27be 586d cabb 36cc 22be
00000310: 930d 92bd f793 a2be 5499 713e 3b07 c9bd
00000320: e2b1 9ebe 7b85 72be 8ea6 a83e e476 10be
00000330: e617 bf3a 51fc dcbe 5c29 ffbb 3614 a73e
00000340: 5078 823e 8819 8d3d 6ebc 13be b01b ae3d
00000350: 5941 5b3d fb71 3abe 554e d1be b54b 203d
00000360: 6edc b03e d5c9 3a3e b197 813e a7d6 7b3e
00000370: 52cd f33e e91b 63be f9ab 32be a043 913d
00000380: c458 0fbe b0ef 12bd 1241 4a3e 5803 113e
00000390: 8912 cf3d 6cc3 f73c e8b1 44bd 7588 c03d
000003a0: 4e91 33be 16dc 803e e451 06be 97d7 06be
000003b0: b312 883c 24ac 963e f97b bcbc e1d8 b4be
000003c0: 010e 1e3e 8e5f 51bc 4976 37bc 766e 423e
000003d0: 7ada 0ebe ac46 32be 1531 4e3e d5d8 b53d
000003e0: 63a6 013e 969e 083d 46d4 63be c926 e23d
000003f0: b760 3f3e b040 843e 30c7 61bc 9f9c e8bd

functional_2_1/sequential_1/dense_1/BiasAdd/ReadVariableOp:0 f4 [100]
-0.92417145 -0.68330854 -0.8818583 -0.13768753 0.03613641 0.08479227 0.6957886 -0.018969651
-0.6718223 -0.42533067 0.0048674727 -0.42049506 -0.21609995 -0.48725212 0.33792838 -0.32031992
-0.65320504 -0.421838 -0.31568834 -0.092246555 0.050763894 -1.1771325 0.49740624 -0.2167714
-0.5039128 -0.124778785 0.47304657 -0.5861402 -0.46747237 0.3729365 -0.07523447 0.06743397
0.0 0.09560061 -0.75722855 0.45902348 -0.44708005 0.13004412 -0.06502659 -0.24833836
-0.23600744 -0.5723704 -0.27969873 0.4036152 0.4780365 -0.5818789 -1.0369616 0.36292672
-0.51045567 0.5938305 0.4176277 -0.2166395 0.4337103 -0.29834723 -0.18556902 -0.15285815
-0.4309746 0.051680997 -0.21880196 0.4037283 -1.1065978 0.15816788 -0.018534057 -0.36794966
0.5596803 -0.6268921 -0.10876789 0.26975045 -0.39219734 0.4695507 0.17824998 0.386543
-0.15289459 0.46011207 -0.47186032 0.3653411 -0.47068995 -0.21016826 -0.3017285 0.07313321
-0.16623813 0.07807931 -0.63800156 0.43432996 -0.40513882 -0.4782968 -0.5640465 -0.3836285
-0.48463526 0.010295146 -0.1663625 -0.85622287 0.44780397 -0.3280146 -0.32935855 0.5045607
0.44184813 -0.30289796 -0.44470719 -0.1702587
00000000: 8096 6cbf 4fed 2ebf 77c1 61bf f6fd 0cbe
00000010: c603 143d 92a7 ad3d 341f 323f 3e66 9bbc
00000020: 8cfc 2bbf f1c4 d9be 527f 9f3b 214b d7be
00000030: 4e49 5dbe 1c79 f9be f304 ad3e f900 a4be
00000040: 7238 27bf 26fb d7be e7a1 a1be c3eb bcbd
00000050: cded 4f3d 47ac 96bf 08ac fe3e 52f9 5dbe
00000060: 6e00 01bf 058c ffbd 2933 f23e 490d 16bf
00000070: 8a58 efbe 88f1 be3e 8814 9abd d21a 8a3d
00000080: 0000 0000 41ca c33d bbd9 41bf 2005 eb3e
00000090: ade7 e4be 492a 053e a92c 85bd 694c 7ebe
000000a0: efab 71be de86 12bf ac34 8fbe a7a6 ce3e
000000b0: 33c1 f43e 04f6 14bf 28bb 84bf 88d1 b93e
000000c0: 39ad 02bf 4705 183f 4cd3 d53e bfd6 5dbe
000000d0: 470f de3e f8c0 98be ce05 3ebe d986 1cbe
000000e0: b4a8 dcbe 74af 533d 9f0d 60be 7ab5 ce3e
000000f0: ffa4 8dbf c3f6 213e bcd4 97bc e663 bcbe
00000100: 3547 0f3f 007c 20bf b3c1 debd bb1c 8a3e
00000110: 17ce c8be f368 f03e 2a87 363e f7e8 c53e
00000120: 6690 1cbe cf93 eb3e ad97 f1be fd0d bb3e
00000130: 46fe f0be 5936 57be 287c 9abe ddc6 953d
00000140: 543a 2abe 0ce8 9f3d 1254 23bf 7f60 de3e
00000150: 5b6e cfbe 51e3 f4be 5a65 10bf f46a c4be
00000160: 1d22 f8be f9ac 283c ee5a 2abe 6c31 5bbf
00000170: 9046 e53e 88f1 a7be afa1 a8be e42a 013f
00000180: eb39 e23e 7115 9bbe a9b0 e3be 4c58 2ebe
