public/models/pre-postnatal-cortex+all+rna-pumap.onnx (onnx, 331380 bytes, 8 tensors)

1.weight f4 [200, 8]
0.10370472 0.22192404 0.053125985 0.020842917 -0.18920858 -0.072468884 -0.29334268 0.29600668
-0.09738577 0.12496856 -0.07642022 -0.1629113 -0.26761168 -0.21053527 -0.23395635 -0.2510816
-0.298809 0.26249743 0.49662182 -0.22951284 0.18062967 0.49967226 -0.42665032 0.001395898
-0.13050212 0.04955445 -0.26095864 -0.14638233 -0.041386664 0.25912637 -0.022758989 0.19875193
-0.0085544875 0.10215152 0.26968738 0.048839744 -0.14328147 -0.04990707 -0.036464404 0.24236411
0.00061510876 0.28813258 -0.27213556 0.11461049 -0.12846266 -0.1959571 -0.0944084 -0.22521347
0.14852872 -0.21409453 0.007295685 0.087879345 -0.07664309 -0.44145492 0.118990496 -0.17917767
-0.19069913 0.123548985 0.017157797 0.20039465 0.24756423 0.040160336 -0.11787137 0.089481995
-0.07038091 -0.036227588 -0.016940134 -0.061962917 -0.09551969 0.062729456 0.10604074 0.098084606
0.31386915 0.3722985 0.30189586 -0.12605186 -0.06975586 -0.5703369 0.18105233 -0.2244249
-0.50707865 0.04957742 -0.25164577 0.11875599 -0.25390837 -0.1893382 0.11925506 0.01523927
0.13868974 -0.03547167 -0.2844303 -0.29234308 -0.16177939 0.3101367 0.21424286 -0.2588653
-0.024461068 0.18689321 -0.26796126 -0.19829684 -0.14599366 -0.026905997 -0.25162095 0.06821506
0.12313196 -0.13354528 0.26742107 0.18668813 -0.28876272 0.0071258824 -0.4937424 -0.033563256
-0.29242226 -0.18707624 -0.12412044 -0.16171856 -0.16409916 -0.087735765 0.07361893 -0.26952538
-0.03831022 -0.16524394 -0.27152255 0.1432789 -0.15060452 -0.24949129 -0.2866005 0.115979135
-0.027456649 -0.026472181 -0.06849327 0.070859976 0.15029483 0.00080925005 0.02679939 0.1805266
-0.030891003 -0.039167937 0.105806574 0.19291694 0.010007503 -0.03499705 -0.10047997 0.26266572
0.17782141 0.0067313053 0.27782574 0.32366928 -0.017545458 -0.02603807 0.14285336 -0.14392066
-0.2950684 -0.095092595 -0.023922507 0.002746098 -0.001020284 0.040021814 -0.16352881 -0.124040216
0.16816501 0.07253624 -0.2271305 0.031021247 0.022501912 0.17465976 -0.24697658 0.14265752
-0.13526595 -0.3337032 -0.0423804 -0.72361976 -0.5504423 0.41883302 -0.7926219 -0.013891026
-0.066424616 -0.12696923 0.017900318 -0.13981162 -0.04019339 0.36778903 -0.15039687 -0.38931516
-0.43765554 -0.0063151345 -0.029974356 -0.20608567 -0.3432301 -0.1274864 -0.25100753 -0.02503364
-0.08144129 -0.22250059 0.10967793 0.0011524549 0.10597597 -0.08300268 0.0630119 -0.021743279
0.09408863 -0.19750758 0.05357648 0.27480543 -0.026395889 0.05908563 -0.21020831 -0.2834417
-0.054447185 0.18904115 -0.16969919 -0.2699912 -0.014915969 -0.15410525 -0.286456 -0.2625667
-0.35397172 0.07594423 0.058064528 0.044131227 -0.07769335 -0.23426005 -0.23395953 0.15974626
0.124496184 0.2720891 0.35344175 -0.113695286 -0.016204253 -0.05113162 -0.1801623 0.120496266
-0.304886 0.3507079 -0.053927403 -0.25914162 0.025607804 -0.04018184 0.35919586 -0.028669618
0.057665624 0.1485757 0.06897808 -0.2108504 -0.24024203 0.02148725 -0.086994626 -0.21572271
0.041256145 0.17252113 0.13097659 0.2262027 0.038604487 -0.0661634 -0.14836608 0.06640954
00000000: 2463 d43d 0e40 633e a29a 593d c4be aa3c
00000010: e5bf 41be 916a 94bd 0331 96be 308e 973e
00000020: 3172 c7bd 84ef ff3d 3482 9cbd 38d2 26be
00000030: 6604 89be 8f96 57be 4192 6fbe c48d 80be
00000040: 7efd 98be 1066 863e 3745 fe3e 6a05 6bbe
00000050: fcf6 383e 0bd5 ff3e e971 dabe 91f6 b63a
00000060: 59a2 05be 9bf9 4a3d 5f9c 85be 40e5 15be
00000070: 1085 29bd 36ac 843e 0f71 babc a085 4b3e
00000080: 1f28 0cbc d134 d13d 7714 8a3e 2f0c 483d
00000090: 61b8 12be 5b6b 4cbd b35b 15bd 4c2e 783e
000000a0: 403f 213a 1d86 933e 5a55 8bbe e8b8 ea3d
000000b0: b78b 03be faa8 48be 3159 c1bd 5c9e 66be
000000c0: ea17 183e 993b 5bbe a410 ef3b 16fa b33d
000000d0: 0df7 9cbd 6106 e2be 4ab1 f33d 5a7a 37be
000000e0: a246 43be 4007 fd3d 828e 8c3c 4134 4d3e
000000f0: 7a81 7d3e 2a7f 243d 8b66 f1bd 5642 b73d
00000100: de23 90bd 6163 14bd 09c6 8abc d4cc 7dbd
00000110: d49f c3bd 4d78 803d e32b d93d 95e0 c83d
00000120: 75b3 a03e e99d be3e 1892 9a3e bd13 01be
00000130: 29dc 8ebd 9901 12bf c865 393e a4cf 65be
00000140: e8cf 01bf b111 4b3d b7d7 80be 5736 f33d
00000150: 4700 82be e0e1 41be ff3b f43d 22ae 793c
00000160: af04 0e3e be4a 11bd d9a0 91be fead 95be
00000170: 7fa9 25be 3dca 9e3e 7b62 5b3e fe89 84be
00000180: 9462 c8bc ef60 3f3e 3832 89be 540e 4bbe
00000190: 5d7f 15be f769 dcbc 76d4 80be 56b4 8b3d
000001a0: 9c2c fc3d 18c0 08be 6aeb 883e 2c2b 3f3e
000001b0: b5d8 93be 3c80 e93b cecb fcbe a079 09bd
000001c0: 5fb8 95be ea90 3fbe db32 febd 8d99 25be
000001d0: 9c09 28be cfae b3bd 86c5 963d 3bff 89be
000001e0: 2deb 1cbd b535 29be 0105 8bbe b4b7 123e
000001f0: 1238 1abe a57a 7fbe 4dbd 92be 7886 ed3d
00000200: c4ec e0bc 30dc d8bc 3346 8cbd 091f 913d
00000210: e3e6 193e da23 543a 658a db3c f7db 383e
00000220: 210f fdbc 8f6e 20bd 1eb1 d83d 058c 453e
00000230: 83f6 233c 1159 0fbd 71c8 cdbd 1f7c 863e
00000240: d116 363e 4892 dc3b 2d3f 8e3e fbb7 a53e
00000250: 7ebb 8fbc ca4d d5bc 2748 123e f05f 13be
00000260: 3513 97be e8bf c2bd 22f9 c3bc e1f7 333b
00000270: 0dbb 85ba eaed 233d 1974 27be cc08 febd
00000280: 7333 2c3e e18d 943d e694 68be 4520 fe3c
00000290: ee55 b83c 02da 323e 6ee7 7cbe d014 123e
000002a0: 2883 0abe 25db aabe 1297 2dbd 253f 39bf
000002b0: c9e9 0cbf 4871 d63e 45e9 4abf 3097 63bc
000002c0: a109 88bd 3904 02be b0a3 923c c72a 0fbe
000002d0: d3a1 24bd d84e bc3e a301 1abe 5154 c7be
000002e0: 6314 e0be 30ef cebb c88c f5bc 1f08 53be
000002f0: dbbb afbe cb8b 02be 0f84 80be 5913 cdbc
00000300: b1ca a6bd 32d7 63be d39e e03d f80d 973a
00000310: ee09 d93d 4ffd a9bd 620c 813d f61e b2bc
00000320: 8ab1 c03d 6d3f 4abe 0373 5b3d 4cb3 8c3e
00000330: 313c d8bc c603 723d d940 57be 451f 91be
00000340: 0304 5fbd 0194 413e a0c5 2dbe 493c 8abe
00000350: 1c62 74bc c4cd 1dbe 5caa 92be 246f 86be
00000360: c83b b5be a688 9b3d 12d5 6d3d f2c2 343d
00000370: b11d 9fbd dee1 6fbe 1693 6fbe 8694 233e
00000380: dbf7 fe3d 434f 8b3e 51f6 b43e 13d9 e8bd
00000390: c8be 84bc 646f 51bd 777c 38be bfc6 f63d
000003a0: 051a 9cbe fc8f b33e fbe2 5cbd 36ae 84be
000003b0: 75c7 d13c b795 24bd 85e8 b73e 8cdc eabc
000003c0: ca32 6c3d 3a24 183e 6144 8d3d 2be9 57be
000003d0: 0202 76be 0806 b03c 3d2a b2bd 6ae6 5cbe
000003e0: 34fc 283d 61a9 303e ba1e 063e aea1 673e
000003f0: bd1f 1e3d ad80 87bd 47ed 17be ba01 883d

1.bias f4 [200]
-0.28670686 -0.19484438 -0.080625184 -0.5782357 0.045368798 -0.25141382 -0.022307029 -0.34024182
0.20958984 0.12591645 0.066398636 -0.57349086 -0.24687687 -0.17443591 -0.3320605 0.056590572
0.25898713 0.11008184 -0.28684846 -0.1809685 0.23662414 0.2338284 0.089753866 0.06850654
0.33019924 -0.31075802 -0.009585548 -0.030694723 0.08459305 0.3369438 -0.32437202 -0.23846406
-0.291089 -0.40868485 -0.18678327 -0.30299872 0.2952222 0.31414828 0.24659196 -0.1972125
-0.33628702 -0.10595144 -0.103680044 0.40444505 -0.19749793 -0.5875999 -0.57516605 -0.30996835
-0.16541867 0.49054143 -0.14004381 0.4560598 0.18886247 -0.26437813 -0.043508288 0.43993732
-0.6399792 -0.07688067 -0.5490627 0.17617689 -0.55065066 0.43813074 0.5531939 -0.2549681
0.17279516 -0.31587803 -0.27340436 -0.25182354 0.47510898 -0.20371869 -0.3216701 -0.03442197
-0.20775694 -0.25526586 0.40266222 -0.02877036 -0.46990284 -0.3792989 -0.6698969 0.18407255
0.3681513 -0.3126681 -0.18086806 -0.3442105 -0.10035943 0.47098836 -0.26340365 -0.49657163
0.3262123 -0.55233353 -0.5485078 0.024504965 -0.027411161 0.24176776 -0.20430537 0.42174488
0.5978358 0.20836577 0.094362564 0.61505693 0.041426588 -0.26581442 -0.3796644 -0.06529078
0.3789681 0.3192538 -0.32267776 0.13669561 -0.31042406 -0.07701264 0.14826427 -0.29944092
-0.6752601 0.11878136 -0.27058724 -0.29567793 -0.118319094 -0.025489219 -0.3001674 -0.42582458
0.33827034 -0.15933624 -0.19144645 -0.3252482 -0.5561131 0.49819285 -0.24751464 -0.33348468
0.39258713 0.33937052 -0.5283567 -0.12385496 -0.37281886 0.003872574 -0.13162789 -0.20743024
0.09728477 -0.60765404 0.44568795 0.090816565 -0.34872755 0.09840042 0.22715344 -0.4352313
-0.4428275 -0.33014187 0.28977525 -0.44404224 0.31182817 -0.08910357 -0.27484414 0.17564465
-0.47195745 -0.5447999 0.4333502 -0.011848643 -0.36647698 0.34904814 0.18018661 -0.42884323
-0.22524185 -0.13095917 0.42596737 -0.23536474 -0.023645025 -0.12804057 -0.20336804 0.094098724
-0.01908735 -0.08654158 -0.3483454 -0.661635 -0.32539037 -0.5331348 -0.08356036 0.04139657
-0.20337056 0.2119733 0.603216 -0.24592483 -0.55888176 -0.19867004 0.038732268 0.21700282
0.18322533 -0.63918847 -0.1946671 -0.18993807 0.53031266 0.097405635 -0.07851564 0.227593
-0.17220381 -0.3372446 -0.3126817 -0.47802636 -0.06509557 -0.18338794 -0.60755587 -0.16977265
00000000: 3ecb 92be 4985 47be d11e a5bd 4107 14bf
00000010: a2d4 393d 50b9 80be 3bbd b6bc 2d34 aebe
00000020: b89e 563e 3ef0 003e 02fc 873d 4cd0 12bf
00000030: 4acd 7cbe 549f 32be d503 aabe 84cb 673d
00000040: f699 843e 9672 e13d cddd 92be ce4f 39be
00000050: 994d 723e b670 6f3e e0d0 b73d 284d 8c3d
00000060: e00f a93e ad1b 9fbe b40c 1dbc 8073 fbbc
00000070: 1f3f ad3d e683 ac3e 1714 a6be ec2f 74be
00000080: 9e09 95be 243f d1be 1d44 3fbe a622 9bbe
00000090: 5d27 973e 0bd8 a03e 9a82 7c3e 13f2 49be
000000a0: d02d acbe 12fd d8bd 3456 d4bd 6c13 cf3e
000000b0: e63c 4abe f26c 16bf 153e 13bf 2cb4 9ebe
000000c0: 8363 29be 3f28 fb3e a567 0fbe ac80 e93e
000000d0: 2a65 413e 925c 87be bf35 32bd 773f e13e
000000e0: add5 23bf 9d73 9dbd 608f 0cbf b767 343e
000000f0: 71f7 0cbf ac52 e03e 1e9e 0d3f 2e8b 82be
00000100: 37f1 303e c4ba a1be a8fb 8bbe 04ef 80be
00000110: 7c41 f33e a29b 50be f1b1 a4be 0dfe 0cbd
00000120: 3cbe 54be 35b2 82be be29 ce3e d1af ebbc
00000130: 1b97 f0be 7733 c2be 5d7e 2bbf 847d 3c3e
00000140: 547e bc3e 0916 a0be 7a35 39be 5c3c b0be
00000150: 3f89 cdbd 6325 f13e d8dc 86be a33e febe
00000160: 4c05 a73e bb65 0dbf 026b 0cbf a3be c83c
00000170: 5f8d e0bc f891 773e 6d35 51be f2ee d73e
00000180: c40b 193f d65d 553e 2941 c13d 5f74 1d3f
00000190: edae 293d d418 88be 5f63 c2be 2cb7 85bd
000001a0: 1b08 c23e 3c75 a33e 0536 a5be eff9 0b3e
000001b0: e7ef 9ebe ceb8 9dbd 97d2 173e 5250 99be
000001c0: d9dd 2cbf a443 f33d 698a 8abe 1963 97be
000001d0: 4851 f2bd c4ce d0bc 8baf 99be ae05 dabe
000001e0: c531 ad3e 0a29 23be 8a0a 44be ef86 a6be
000001f0: 6e5d 0ebf 2213 ff3e 7a74 7dbe 81be aabe
00000200: 2e01 c93e f9c1 ad3e 6242 07bf aba7 fdbd
00000210: 1de2 bebe 03cb 7d3b 76c9 06be 9868 54be
00000220: 3d3d c73d 378f 1bbf 3631 e43e 09fe b93d
00000230: 6b8c b2be 2986 c93d e99a 683e a3d6 debe
00000240: 49ba e2be 5b08 a9be 6c5d 943e 8159 e3be
00000250: f1a7 9f3e ef7b b6bd 5fb8 8cbe 31dc 333e
00000260: 68a4 f1be 0278 0bbf 14e0 dd3e d020 42bc
00000270: dfa2 bbbe 70b6 b23e d782 383e 5791 dbbe
00000280: cda5 66be 291a 06be 6518 da3e 7403 71be
00000290: 36b3 c1bc 111d 03be b63f 50be d5b6 c03d
000002a0: 135d 9cbc b63c b1bd 545a b2be e960 29bf
000002b0: 9199 a6be 867b 08bf b221 abbd 738f 293d
000002c0: 5f40 50be 870f 593e 5d6c 1a3f b8d3 7bbe
000002d0: e012 0fbf 2970 4bbe baa5 1e3d fd35 5e3e
000002e0: 6c9f 3b3e dba1 23bf d056 47be 207f 42be
000002f0: 92c2 073f 9b7c c73d cfcc a0bd 240e 693e
00000300: 3256 30be 53ab acbe d117 a0be dfbf f4be
00000310: d450 85bd 0cca 3bbe c888 1bbf e2d8 2dbe

3.weight f4 [200, 200]
0.14122899 0.0148209315 -0.009662471 0.31178397 0.061298855 0.011104002 -0.07658108 -0.12444365
0.02302558 -0.07345116 0.027773863 0.48410946 -0.026013117 -0.0080046095 -0.0654689 0.07451393
0.10123634 0.07714255 -0.31902435 -0.061066773 0.026820302 -0.022743912 0.06214384 -0.052500673
-0.029668028 0.2144279 -0.031161003 -0.037290987 0.03220466 -0.19797471 0.055051807 0.03692254
-0.055852313 0.085253924 -0.12174214 -0.074094445 -0.093499176 -0.04422209 -0.14912277 -0.15121536
-0.5130167 -0.13279259 -0.11568227 0.031532254 -0.051940333 -0.14306217 0.028088156 -0.016953077
-0.10473138 0.01430409 -0.0102842 0.012803575 -0.05005563 -0.13418165 -0.04348701 -0.025919348
0.6335825 -0.13440372 0.22093901 -0.046241477 -0.09825198 -0.018154873 0.037904263 -0.018788755
0.05185933 0.0005886174 -0.037935194 0.004952675 0.11787653 -0.0067295735 0.32642257 0.060134806
-0.041235067 0.07143083 -0.009996869 -0.185593 -0.2569713 -0.16433373 -0.1999666 -0.021326091
-0.045888428 -0.06721434 -0.0035642344 -0.27156973 0.015836367 0.09936982 -0.0024529125 -0.047560763
-0.0729821 0.01008875 -0.48968366 0.0801203 -0.020843117 0.0015617067 -0.112618715 0.07040494
0.07723471 0.10287979 -0.13443483 0.10224002 0.008104238 -0.026770147 -0.05095149 -0.12557934
-0.013757692 0.05741909 -0.119077064 0.06672281 -0.12714121 0.027680166 -0.034218766 -0.08099318
-0.22031201 0.0033542614 0.09041435 -0.019061452 -0.057020213 0.045795333 0.02841525 -0.20836136
0.1263212 -0.21417518 -0.08408497 -0.02860953 -0.4230323 0.048525617 0.00842269 -0.06210669
0.005009392 -0.13034624 -0.5694071 -0.094038 -0.020820431 0.0691414 0.07424393 -0.12031217
-0.004094813 -0.13627802 0.1213056 0.06883535 -0.008462077 -0.09397754 0.021288324 -0.34758946
-0.07854269 0.0027653237 -0.17303087 -0.027422838 -0.020742847 0.05798558 0.116670445 0.008044783
-0.054267693 -0.26411647 0.085586354 0.003889171 -0.11357723 0.12481658 -0.052948162 0.14381053
-0.12620786 -0.05924784 0.04254324 -0.01772293 -0.011718814 0.048807584 -0.045875277 0.09027311
-0.063913815 0.04118162 0.03747237 -0.15942381 -0.09524153 -0.24134047 0.00037996733 0.037000064
-0.05645997 -0.013605619 -0.01988823 -0.13581046 0.22261792 0.008798521 0.0140100885 0.028607193
-0.100640535 -0.072173454 -0.017334057 -0.074694976 0.089514084 0.053639036 -0.04800703 0.043293346
-0.044985324 -0.23879114 -0.06734693 -0.021626934 0.052816775 0.012975184 -0.24874666 0.06884372
0.031692486 0.032877605 -0.023292815 0.055409964 0.046859495 -0.021279935 -0.11870591 0.049688708
0.00626267 -0.14259706 -0.060659457 0.20270465 0.06433286 -0.04534818 -0.057096083 0.06541641
0.06320594 -0.09620376 -0.015602901 -0.00015138919 -0.052182764 0.15644947 -0.13961516 -0.009942365
0.059374295 -0.05035449 0.06442771 0.011687097 -0.0066845967 -0.07183983 -0.06486703 -0.03624796
0.017791823 -0.05689622 -0.02364552 -0.10468271 0.051896274 -0.06808088 -0.09491529 0.07145199
-0.16689359 0.0305342 0.02664694 0.008980789 -0.019202786 0.1269005 -0.3963207 -0.12234952
-0.2794127 -0.113009505 -0.04609232 -0.029481681 0.033336766 0.020647269 0.04608643 0.043883674
00000000: 559e 103e 7ed3 723c 574f 1ebc 26a2 9f3e
00000010: 8214 7b3d 8fed 353c 8bd6 9cbd 50dc febd
00000020: 24a0 bc3c 906d 96bd 0386 e33c 32dd f73e
00000030: 7619 d5bc c425 03bc 8f14 86bd c29a 983d
00000040: 0055 cf3d eafc 9d3d 2957 a3be 2721 7abd
00000050: 40b6 db3c 7151 babc 8a8a 7e3d f20a 57bd
00000060: 5d0a f3bc fd92 5b3e 5c45 ffbc 6fbe 18bd
00000070: 09e9 033d e2b9 4abe 017e 613d 173c 173d
00000080: 65c5 64bd 9c99 ae3d f153 f9bd d4be 97bd
00000090: 7f7c bfbd 3922 35bd a4b3 18be 33d8 1abe
000000a0: 1055 03bf c8fa 07be d3ea ecbd f727 013d
000000b0: 63bf 54bd e47e 12be 2219 e63c 2ee1 8abc
000000c0: 687d d6bd b45b 6a3c 107f 28bc 16c6 513c
000000d0: 2207 4dbd ea66 09be 6f1f 32bd d054 d4bc
000000e0: 7632 223f 21a1 09be d63d 623e b467 3dbd
000000f0: 5638 c9bd 87b9 94bc 8041 1b3d e0ea 99bc
00000100: 736a 543d 724d 1a3a ef61 1bbd 0d4a a23b
00000110: 4069 f13d c183 dcbb dc20 a73e ea4f 763d
00000120: 1ae6 28bd 544a 923d e8c9 23bc 170c 3ebe
00000130: be91 83be 1a47 28be 0bc4 4cbe 0eb4 aebc
00000140: 81f5 3bbd aca7 89bd ee95 69bb 300b 8bbe
00000150: 45bb 813c 6782 cb3d 0bc1 20bb 13cf 42bd
00000160: a477 95bd 494b 253c d1b7 fabe 1d16 a43d
00000170: 2fbf aabc 2eb2 cc3a a4a4 e6bd 7730 903d
00000180: 3b2d 9e3d a4b2 d23d 49a9 09be 3763 d13d
00000190: a3c7 043c 114d dbbc 82b2 50bd df97 00be
000001a0: f167 61bc 4830 6b3d adde f3bd f8a5 883d
000001b0: 4e31 02be 84c1 e23c fa28 0cbd c1df a5bd
000001c0: 7999 61be 2bd3 5b3b 292b b93d c326 9cbc
000001d0: 078e 69bd e393 3b3d 19c7 e83c ae5c 55be
000001e0: 585a 013e bd50 5bbe be34 acbd 885e eabc
000001f0: b197 d8be ccc2 463d 53ff 093c 9663 7ebd
00000200: d325 a43b 7c79 05be aac4 11bf ff96 c0bd
00000210: 9c8f aabc 029a 8d3d 340d 983d 3a66 f6bd
00000220: c82d 86bb 778c 0bbe 126f f83d 8cf9 8c3d
00000230: 86a4 0abc 4c77 c0bd da64 ae3c 3ff7 b1be
00000240: fdda a0bd 6f3a 353b 012f 31be dca5 e0bc
00000250: e7ec a9bc 4a82 6d3d eaf0 ee3d 44ce 033c
00000260: cd47 5ebd 463a 87be e647 af3d 76e1 7e3b
00000270: 2e9b e8bd d69f ff3d 2ce0 58bd 1143 133e
00000280: a23c 01be ddad 72bd d241 2e3d ae2f 91bc
00000290: 4500 40bc 76ea 473d b7e7 3bbd 1ce1 b83d
000002a0: 3fe5 82bd 0fae 283d a17c 193d ff3f 23be
000002b0: fe0d c3bd f521 77be 5a36 c739 618d 173d
000002c0: 9242 67bd 1aea 5ebc a4ec a2bc e611 0bbe
000002d0: f4f5 633e ac27 103c 928a 653c a259 ea3c
000002e0: a01c cebd adcf 93bd 2700 8ebc aef9 98bd
000002f0: 2953 b73d 9bb4 5b3d 05a3 44bd 5d54 313d
00000300: 8842 38bd aa85 74be 30ed 89bd f82a b1bc
00000310: 6756 583d de95 543c 72b7 7ebe f0fd 8c3d
00000320: fbcf 013d abaa 063d 93d0 bebc 8ff5 623d
00000330: beef 3f3d 4253 aebc 161c f3bd 6386 4b3d
00000340: 1537 cd3b f704 12be 0d76 78bd cf91 4f3e
00000350: f2c0 833d 03bf 39bd 95dd 69bd 0af9 853d
00000360: 1e72 813d 7a06 c5bd 4fa3 7fbc 3abe 1eb9
00000370: 98bd 55bd 4a34 203e 47f7 0ebe 4de5 22bc
00000380: 7632 733d 8240 4ebd adf2 833d 3d7b 3f3c
00000390: 760a dbbb c320 93bd 01d9 84bd be78 14bd
000003a0: 28c0 913c 030c 69bd 40b4 c1bc e363 d6bd
000003b0: 3091 543d fd6d 8bbd f362 c2bd 6c55 923d
000003c0: 27e6 2abe dc22 fa3c af4a da3c 2924 133c
000003d0: 294f 9dbc 34f2 013e 8cea cabe 6392 fabd
000003e0: 2e0f 8fbe 8771 e7bd 4dcb 3cbd 9183 f1bc
000003f0: 228c 083d 7624 a93c 20c5 3c3d 5ebf 333d

3.bias f4 [200]
0.06488886 -0.00808323 -0.017354539 -0.06480206 -0.009766873 -0.115644634 0.1387383 0.0047251415
0.04039221 -0.022703944 -0.024752747 0.10345479 -0.1351224 -0.31030384 -0.05255551 0.040521745
-0.1638979 -0.07258139 0.039096955 -0.029479448 0.11765736 0.083148286 -0.08575127 -0.044650663
-0.02735494 -0.09959926 -0.12662037 -0.13490961 -0.026213793 -0.118388355 -0.087201506 -0.030962493
-0.05480087 -0.071552336 0.020469964 -0.1616277 -0.01738692 0.046988286 -0.05238761 -0.06409228
0.18432154 -0.09458296 0.13303709 -0.07365227 -0.08555909 0.10373379 -0.013286366 -0.0120713245
-0.047672726 0.15280674 -0.09364384 0.004786947 -0.03141127 -0.06697162 0.11337538 -0.01277758
-0.003427857 0.0630601 0.035817306 -0.011519314 -0.0529351 0.008354438 -0.07527043 -0.014938148
-0.1323565 0.03655094 -0.15376288 0.08610053 -0.14542387 -0.05846707 -0.101721436 -0.018671924
-0.025084533 0.017271902 -0.043049622 0.042671636 -0.08878485 0.03270662 -0.1292188 -0.11734721
-0.0032551747 -0.06066517 -0.007341769 -0.17919657 -0.05329075 -0.094959006 -0.177272 -0.041142583
0.08075793 -0.035921592 -0.11740189 -0.1198084 -0.03069411 -0.17195801 -0.0074644964 0.051529087
-0.08101923 -0.020121383 0.0043492718 -0.0670448 0.05776738 -0.15293849 -0.15436772 0.16439247
-0.023878243 0.09288185 -0.011904206 0.011283672 -0.019419132 -0.09974199 0.12117631 -0.13705832
-0.06427075 0.02831719 0.010200249 -0.0038670101 -0.13867722 0.15451321 -0.12236949 -0.091473214
-0.045923963 -0.036910415 -0.05323939 -0.038544837 -0.096036024 -0.0068221614 -0.09851752 0.020925906
0.16423331 -0.0015069331 -0.123976626 -0.111808375 -0.07620642 0.023502883 -0.043968976 0.0031833388
-0.06103081 -0.101886265 -0.026845828 0.0451315 -0.0328245 -0.07347041 -0.17087416 0.07940696
0.23307312 -0.009315628 -0.051229633 -0.13632183 -0.20357981 -0.055952955 -0.046009418 0.0056893695
-0.13364226 -0.0070706066 -0.041450538 -0.09545266 -0.04593682 -0.08718732 -0.0831074 0.049186453
-0.083891235 -0.08848474 -0.116243355 -0.15789858 0.08558302 0.0073993336 -0.13559017 -0.10424736
-0.012228039 -0.06925666 -0.13076733 -0.088834494 -0.04037598 -0.04672147 -0.009640342 0.041117262
-0.074189626 -0.06028864 -0.013870067 -0.01785678 -0.08985878 -0.061007455 -0.06389775 -0.014944045
0.13113992 -0.11081895 -0.16007276 0.07764975 -0.16957076 -0.08107487 -0.06609508 -0.058015924
0.012097741 0.12425305 -0.067197375 0.02071495 -0.127252 -0.071900025 -0.017482951 -0.0810612
00000000: 73e4 843d 866f 04bc 1b2b 8ebc f1b6 84bd
00000010: 3c05 20bc 18d7 ecbd 6a11 0e3e 5cd5 9a3b
00000020: 4d72 253d 9ffd b9bc 46c6 cabc 1be0 d33d
00000030: 875d 0abe 25e0 9ebe 7244 57bd 21fa 253d
00000040: dad4 27be 8da5 94bd 2124 203d e27e f1bc
00000050: 58f6 f03d a649 aa3d 5d9e afbd 9de3 36bd
00000060: 7817 e0bc b2fa cbbd c5a8 01be bf25 0abe
00000070: 4fbe d6bc 9875 f2bd b496 b2bd 0ea5 fdbc
00000080: e176 60bd 088a 92bd a0b0 a73c bb81 25be
00000090: 046f 8ebc ca76 403d 6494 56bd d042 83bd
000000a0: c9be 3c3e b6b4 c1bd e03a 083e 00d7 96bd
000000b0: 9b39 afbd 6272 d43d 0faf 59bc cec6 45bc
000000c0: 7a44 43bd 5f79 1c3e 57c8 bfbd d2db 9c3b
000000d0: 1ba9 00bd 6b28 89bd 5a31 e83d 0e59 51bc
000000e0: e6a5 60bb a725 813d 2bb5 123d 81bb 3cbc
000000f0: 7ad2 58bd 0de1 083c 6227 9abd 22bf 74bc
00000100: 7688 07be 70b6 153d 0474 1dbe 7a55 b03d
00000110: ffe9 14be 2b7b 6fbd 5453 d0bd ddf5 98bc
00000120: 147e cdbc ce7d 8d3c cd54 30bd 74c8 2e3d
00000130: d5d4 b5bd 60f7 053d ef51 04be bc53 f0bd
00000140: c554 55bb 0b7c 78bd 3993 f0bb 4e7f 37be
00000150: 6747 5abd de79 c2bd cb86 35be 2085 28bd
00000160: 6a64 a53d 8522 13bd 6770 f0bd 1b5e f5bd
00000170: 3772 fbbc c315 30be bc98 f4bb 2a10 533d
00000180: 69ed a5bd 99d5 a4bc 5684 8e3b c94e 89bd
00000190: 7d9d 6c3d e89b 1cbe 9212 1ebe 8056 283e
000001a0: 4e9c c3bc d738 be3d dc09 43bc 27df 383c
000001b0: df14 9fbc 8745 ccbd 492b f83d 0459 0cbe
000001c0: 62a0 83bd 74f9 e73c f21e 273c aa6d 7dbb
000001d0: 6701 0ebe b638 1e3e db9c fabd 4f56 bbbd
000001e0: c41a 3cbd 602f 17bd 8c11 5abd 31e1 1dbd
000001f0: 89ae c4bd 708c dfbb 8ec3 c9bd ce6c ab3c
00000200: c72c 283e 4984 c5ba 75e7 fdbd cafb e4bd
00000210: 1d12 9cbd 1e89 c03c d018 34bd 909f 503b
00000220: 71fb 79bd bfa9 d0bd c8eb dbbc cfdb 383d
00000230: fc72 06bd a877 96bd a3f9 2ebe 1ea0 a23d
00000240: b8aa 6e3e 93a0 18bc 2ad6 51bd f397 0bbe
00000250: 3a77 50be ed2e 65bd 5f74 3cbd e46d ba3b
00000260: 84d9 08be 8cb0 e7bb 0ac8 29bd af7c c3bd
00000270: 3f28 3cbd 448f b2bd 3634 aabd bc77 493d
00000280: 2bcf abbd 7d37 b5bd ff10 eebd 2ab0 21be
00000290: 2646 af3d 1c76 f23b 26d8 0abe a47f d5bd
000002a0: 1d58 48bc 70d6 8dbd dfe7 05be dcee b5bd
000002b0: 4961 25bd 035f 3fbd 86f2 1dbc 936a 283d
000002c0: bbf0 97bd 39f1 76bd 473f 63bc 6248 92bc
000002d0: e107 b8bd f4e2 79bd d3dc 82bd ded7 74bc
000002e0: 8b49 063e 0cf5 e2bd 1dea 23be d506 9f3d
000002f0: f5a3 2dbe 950a a6bd db5c 87bd 1ba2 6dbd
00000300: 9a35 463c 6278 fe3d c79e 89bd 66b2 a93c
00000310: 594e 02be 5240 93bd 6838 8fbc 6a03 a6bd

5.weight f4 [200, 200]
0.0018497448 0.018145071 0.039456338 -0.037726544 0.050599493 -0.06316371 0.037761606 0.013434775
-0.015757797 0.009670341 -0.016098706 -0.083120644 0.11390231 -0.2167423 0.06329234 -0.076856196
0.14515421 -0.034485675 -0.035470903 0.020823581 -0.13287807 -0.11742423 -0.021262834 0.009370697
0.052016594 0.10752653 0.029660458 0.02670668 0.015040198 0.0661963 0.07140859 0.060960315
0.019039031 0.06509898 0.02363722 0.32631725 -0.092479646 0.04119945 -0.031786967 -0.03372749
-0.04196436 -0.15529136 -0.11145859 0.19839196 0.021006543 -0.051456876 -0.00729775 0.0036510567
0.053356893 -0.13877705 0.039311692 0.06404532 -0.12930296 0.08749943 -0.13295744 0.21156432
0.032207496 -0.11293841 -0.008517088 0.051273677 0.050461065 0.0023517646 0.031605046 -0.026603699
-0.16898872 -0.017739082 0.108249344 -0.112783074 0.15121363 0.0241845 0.029372893 0.0677406
0.05373482 0.37360594 0.27755263 0.038644258 -0.014354786 0.042839628 0.096173815 -0.093524635
0.15105169 -0.14196366 -0.007635765 0.06717455 -0.020624189 0.097303174 0.09546513 0.0689597
-0.19686608 -0.01208907 0.087083645 0.030318547 0.06237995 0.032339197 0.0681491 -0.014762635
0.17379992 -0.04684589 -0.0021988421 -0.053733986 0.0070164935 0.009980701 -0.042055722 -0.12733668
-0.059204336 -0.071639776 0.0021320032 0.103557944 -0.02904579 0.08493521 -0.19766359 0.08330171
0.14763528 0.021387933 0.10475207 -0.057989653 0.099461265 -0.09270664 0.03501643 0.036842648
-0.037405252 -0.012518168 -0.024448935 0.041994356 0.072269365 0.05425104 -0.2633063 0.1570315
-0.10095666 -0.075064555 0.033184234 0.2296654 -0.025890792 -0.045980416 0.07676859 0.0010016161
-0.017043028 0.26211122 -0.01367284 -0.045311354 0.0044557764 -0.0018308604 0.108399644 -0.30164403
-0.16496548 -0.09902329 0.019650444 0.004437397 0.12300164 0.061061114 0.25868228 -0.10043546
0.08508923 0.059834417 0.036664568 -0.054929294 0.12567271 0.40002906 0.26106387 -0.15517819
0.071502104 0.39574292 0.042305112 0.065151334 -0.11632111 0.022222923 -0.009797395 0.10478166
-0.117177114 0.030025462 0.076131724 0.1893915 0.15340982 0.00815216 0.021892939 -0.12883416
-0.08807324 0.13464402 0.12736912 -0.0053641186 0.23879269 -0.015522267 0.029434808 -0.0165612
-0.03682414 0.16077648 0.15532802 -0.2002629 0.2224494 -0.073787585 -0.067522064 -0.010869949
-0.1235369 -0.13845363 0.15956436 0.03776635 0.14700504 0.0805688 -0.066341914 -0.071482055
0.06778379 -0.023102833 0.0021089104 0.051394526 -0.04945939 0.008406332 0.060613483 0.052781302
0.10877442 -0.040795274 0.021645516 0.09056232 -0.17365551 0.63523024 -0.026260305 0.08398551
0.018196192 0.048186738 -0.057235453 0.028414195 0.07114128 0.016300686 0.008925347 0.013323299
0.031395186 -0.10110791 0.07140409 0.03492233 0.16701373 0.048289016 -0.018127041 0.055837125
0.057634316 -0.028108923 -0.026373083 -0.08937933 0.17352994 0.03434323 0.0940257 -0.059595868
-0.0796068 0.116606355 0.05086683 -0.024566941 -0.023994137 0.023520282 -0.022426106 0.02567219
0.04946104 0.080969304 0.041419838 -0.013738102 0.073045015 -0.19335002 -0.022915151 -0.111088425
00000000: 2373 f23a f9a4 943c f89c 213d 2687 1abd
00000010: 6a41 4f3d fa5b 81bd eaab 1a3d 881d 5c3c
00000020: 7f16 81bc 5a70 1e3c 6fe1 83bc 283b aabd
00000030: 9d45 e93d b2f1 5dbe 6a9f 813d c866 9dbd
00000040: 4ea3 143e da40 0dbd f049 11bd 3796 aa3c
00000050: 3011 08be 1d7c f0bd 652f aebc 8d87 193c
00000060: 5a0f 553d df36 dc3d 7dfa f23c f8c7 da3c
00000070: 2a6b 763c ed91 873d ab3e 923d 86b1 793d
00000080: bef7 9b3c 9d52 853d d8a2 c13c 0e13 a73e
00000090: f865 bdbd c1c0 283d 0d33 02bd d625 0abd
000000a0: d2e2 2bbd b304 1fbe 6744 e4bd 4327 4b3e
000000b0: ea15 ac3c 72c4 52bd f721 efbb 9146 6f3b
000000c0: c28c 5a3d 921b 0ebe 4c05 213d 312a 833d
000000d0: ff67 04be e732 b33d ff25 08be 51a4 583e
000000e0: 02ec 033d 414c e7bd 428b 0bbc 5904 523d
000000f0: 43b0 4e3d 1020 1a3b 4b74 013d 00f0 d9bc
00000100: 610b 2dbe 8d51 91bc d5b1 dd3d d0fa e6bd
00000110: bfd7 1a3e 931e c63c 6c9f f03c 95bb 8a3d
00000120: 0b19 5c3d 4749 bf3e 611b 8e3e 7149 1e3d
00000130: 5630 6bbc 9b78 2f3d c7f6 c43d d889 bfbd
00000140: 4bad 1a3e ec5e 11be 7035 fabb cf92 893d
00000150: 0ff4 a8bc e346 c73d 3983 c33d be3a 8d3d
00000160: 4397 49be 3c11 46bc e958 b23d 9a5e f83c
00000170: 1e82 7f3d 1b76 043d c191 8b3d fbde 71bc
00000180: 9bf8 313e 7ae1 3fbd 731a 10bb 2b18 5cbd
00000190: 9dea e53b 1886 233c 9f42 2cbd 8c64 02be
000001a0: 3f80 72bd e0b7 92bd 14b9 0b3b 3016 d43d
000001b0: 70f1 edbc 83f2 ad3d 5368 4abe 169a aa3d
000001c0: b42d 173e bf35 af3c 4188 d63d 8f86 6dbd
000001d0: 59b2 cb3d fbdc bdbd 636d 0f3d 51e8 163d
000001e0: 4036 19bd 0119 4dbc 2249 c8bc 4602 2c3d
000001f0: f601 943d 5736 5e3d 15d0 86be decc 203e
00000200: 5ec2 cebd 72bb 99bd 31ec 073d 682d 6b3e
00000210: ed18 d4bc f655 3cbd da38 9d3d a948 833a
00000220: d29d 8bbc 7133 863e 0c04 60bc 6698 39bd
00000230: c301 923b 7bf9 efba a200 de3d 1671 9abe
00000240: b6ec 28be b9cc cabd f8f9 a03c 9567 913b
00000250: 49e8 fb3d 381b 7a3d 0172 843e 1bb1 cdbd
00000260: 4343 ae3d ef14 753d 962d 163d 8afd 60bd
00000270: 59b0 003e 9cd0 cc3e 2aaa 853e 08e7 1ebe
00000280: b26f 923d d19e ca3e 2048 2d3d 106e 853d
00000290: c339 eebd d90c b63c 4185 20bc c497 d63d
000002a0: 8efa efbd f5f7 f53c f3ea 9b3d d8ef 413e
000002b0: 7717 1d3e a390 053c d258 b33c 1aed 03be
000002c0: be5f b4bd 1fe0 093e 0d6d 023e 7dc5 afbb
000002d0: 1286 743e 1b51 7ebc 4421 f13c 5bab 87bc
000002e0: e9d4 16bd 97a2 243e 4f0e 1f3e b811 4dbe
000002f0: c7c9 633e f21d 97bd 0249 8abd df17 32bc
00000300: ea00 fdbd cac6 0dbe d764 233e e3b0 1a3d
00000310: 7d88 163e 4101 a53d 45de 87bd 2f65 92bd
00000320: 3ad2 8a3d 2742 bdbc a535 0a3b 1183 523d
00000330: ee95 4abd b6ba 093c d845 783d 3531 583d
00000340: 20c5 de3d f218 27bd f051 b13c bd78 b93d
00000350: c0d2 31be 739e 223f da1f d7bc 9800 ac3d
00000360: 2e10 953c 755f 453d b96f 6abd e3c4 e83c
00000370: 85b2 913d 0489 853c 9e3b 123c f749 5a3c
00000380: 3d98 003d aa11 cfbd 4f3c 923d b80a 0f3d
00000390: a605 2b3e b4ca 453d 297f 94bc 78b5 643d
000003a0: f611 6c3d af44 e6bc 5d0c d8bc 830c b7bd
000003b0: d5b1 313e 7dab 0c3d 8c90 c03d cc1a 74bd
000003c0: e408 a3bd 50cf ee3d bd59 503d 9c40 c9bc
000003d0: 5a8f c4bc 9bad c03c f4b6 b7bc 7c4e d23c
000003e0: a997 4a3d 3cd3 a53d d9a7 293d c715 61bc
000003f0: a098 953d 8cfd 45be 8eb8 bbbc 5482 e3bd

5.bias f4 [200]
-0.055481333 0.08153077 0.04479808 0.011337241 -0.0895982 0.004305069 0.09277978 -0.04356159
0.006260191 0.10145744 0.03759245 0.03749245 -0.06713754 0.07173275 0.070382684 0.047137726
0.029459992 -0.012597198 0.05046777 -0.010208931 -0.018846126 0.036571607 -0.0019689912 -0.07212311
0.03990601 0.009865248 -0.06004789 -0.052300997 0.031323627 -0.04531918 -0.109520115 0.03166286
0.030373605 -0.0818962 -0.029352782 0.06659641 0.09368985 -0.08379364 0.0014349902 -0.07338568
0.12139406 -0.018314078 0.018996822 0.06239443 -0.08658949 0.056382816 -0.06536786 -0.009142516
0.004576299 -0.013493706 0.0732633 -0.021865679 0.047514062 0.034689628 -0.032768674 0.029883565
0.010919788 -0.03314366 -0.041374546 0.08911983 0.024751231 -0.08555103 0.0069595776 0.057989653
-0.09653562 -0.019782893 -0.016061801 -0.0297084 -0.07185201 0.02127159 -0.057779226 -0.014415964
0.03927906 0.03740775 0.081688315 0.102455944 -0.15038922 0.05095236 -0.08970885 -0.004018953
-0.04304782 0.014842243 0.033894207 0.032299027 -0.027327156 -0.12261534 -0.10837579 -0.06711845
0.01768798 -0.055123694 0.027043441 0.0844628 -0.046111982 -0.02881356 -0.023911338 0.007073659
0.01669799 0.021246837 -0.0263068 -0.09450215 -0.069345206 -0.13644539 0.03596115 0.02249556
0.026652955 0.03727656 0.12063399 -0.057635676 0.0054289573 -0.038000204 0.0569644 0.018093722
0.09389618 0.12260419 -0.14504613 -0.10186873 -0.11721126 -0.014918186 -0.025947595 0.0101817595
-0.016170124 -0.13607588 0.06205197 -0.018886387 -0.019321918 -0.14884685 -0.027270181 -0.06697983
0.07131988 0.055640064 -0.07572755 -0.039066233 -0.07013499 -0.012524817 -0.04865252 0.01835479
0.14637545 0.04905095 -0.04576457 0.00049423834 -0.14124158 0.07224835 -0.047646172 0.06579801
0.037423555 -0.12449158 -0.007489485 -0.06437531 -0.01811444 -0.03708179 0.054479703 -0.038039234
0.041831743 -0.0022260747 0.020586358 0.069109455 0.11207969 -0.04253124 0.03102216 -0.016419642
0.01638413 -0.040286567 0.017819175 -0.058931246 -0.0023971424 0.022260988 -0.04367837 -0.08069918
-0.10120711 0.046726875 -0.039613564 0.08956457 -0.09121145 0.029251402 0.014514078 0.070621006
0.04337596 -0.109177515 -0.045237258 -0.14047627 -0.14220291 -0.011351878 0.06709655 0.0675937
0.0048538065 -0.03755815 -0.06634265 -0.0801478 0.054479152 -0.009439951 0.08842118 -0.0066642924
0.016727697 -0.034406785 0.00698078 -0.05492043 0.10090357 -0.043884203 -0.050562445 0.025528241
00000000: 6540 63bd 9bf9 a63d 317e 373d d6bf 393c
00000010: 437f b7bd 8911 8d3b 5303 be3d a36d 32bd
00000020: 4a22 cd3b ebc8 cf3d 8afa 193d af91 193d
00000030: 687f 89bd 9fe8 923d cc24 903d 7d13 413d
00000040: 1556 f13c 7a64 4ebc 4bb7 4e3d 5c43 27bc
00000050: 3163 9abc 1ccc 153d 310a 01bb 48b5 93bd
00000060: 7c74 233d d9a1 213c c7f4 75bd 9239 56bd
00000070: 344d 003d 9ba0 39bd 154c e0bd eab0 013d
00000080: 11d2 f83c 32b9 a7bd 3f75 f0bc b363 883d
00000090: 77e0 bf3d 009c abbd 4816 bc3a 3b4b 96bd
000000a0: 739d f83d 6807 96bc 399f 9b3c 4d91 7f3d
000000b0: d555 b1bd abf1 663d 96df 85bd 7eca 15bc
000000c0: c7f4 953b b414 5dbc 120b 963d a71f b3bc
000000d0: 1b9e 423d b616 0e3d 7238 06bd 61ce f43c
000000e0: e9e8 323c a5c1 07bd 5b78 29bd 7584 b63d
000000f0: 18c3 ca3c 6135 afbd 2b0d e43b 8f86 6d3d
00000100: 78b4 c5bd bc0f a2bc 0a94 83bc 085f f3bc
00000110: 2627 93bd c241 ae3c e9a9 6cbd ef30 6cbc
00000120: 14e3 203d de38 193d 344c a73d 6cd4 d13d
00000130: a2ff 19be 6cb3 503d 46b9 b7bd 6cb1 83bb
00000140: e952 30bd e12c 733c a7d4 0a3d fc4b 043d
00000150: 33dd dfbc c01d fbbd 20f4 ddbd 6675 89bd
00000160: 62e6 903c 62c9 61bd 358a dd3c d5fa ac3d
00000170: ebdf 3cbd 6a0a ecbc b6e1 c3bc 27ca e73b
00000180: 39ca 883c d90d ae3c 5c81 d7bc 588a c1bd
00000190: dc04 8ebd 57b8 0bbe 004c 133d 9c48 b83c
000001a0: 4c57 da3c 4eaf 183d f40e f73d 6313 6cbd
000001b0: 65e5 b13b 1aa6 1bbd 8153 693d 4939 943c
000001c0: a44c c03d e817 fb3d f986 14be 8da0 d0bd
000001d0: 750c f0bd 686b 74bc 0d90 d4bc 65d1 263c
000001e0: 3577 84bc 7a57 0bbe 352a 7e3d a0b7 9abc
000001f0: 0049 9ebc 4f6b 18be b765 dfbc b92c 89bd
00000200: 2810 923d d6e6 633d 0c17 9bbd ea03 20bd
00000210: efa2 8fbd e434 4dbc dd47 47bd c95c 963c
00000220: 72e3 153e a6e9 483d a173 3bbd c68f 013a
00000230: a2a1 10be f1f6 933d a228 43bd 1bc1 863d
00000240: 7149 193d 71f5 febd 5b6a f5bb 34d7 83bd
00000250: bc64 94bc 13e3 17bd 1c26 5f3d 07cf 1bbd
00000260: c357 2b3d 56e3 11bb b9a4 a83c 4289 8d3d
00000270: 098a e53d 3d35 2ebd 2f22 fe3c 7c82 86bc
00000280: 0338 863c 8703 25bd 85f9 913c e461 71bd
00000290: 6019 1dbb ad5c b63c 17e8 32bd 9d45 a5bd
000002a0: ac45 cfbd ae64 3f3d d541 22bd a16d b73d
000002b0: 12cd babd a3a0 ef3c 75cc 6d3c bfa1 903d
000002c0: feaa 313d 7698 dfbd b44a 39bd 03d9 0fbe
000002d0: a49d 11be 3afd 39bc ea69 893d 916e 8a3d
000002e0: ae0c 9f3b 93d6 19bd a8de 87bd 8824 a4bd
000002f0: 8825 5f3d 06aa 1abc 2a16 b53d 2360 dabb
00000300: 8608 893c 21ee 0cbd 07bf e43b 3ff4 60bd
00000310: 88a6 ce3d ecbf 33bd 911a 4fbd 9a20 d13c

7.weight f4 [2, 200]
-0.63212484 0.16663836 0.13915905 -0.5348963 -0.5072016 0.008112554 -0.3815839 0.41728124
-0.016709406 0.38232142 0.0699371 0.055899285 -0.29603073 0.3571103 0.2800142 0.23999813
0.19995059 -0.017082933 0.53642267 -0.5268545 -0.08164765 0.16619247 -0.35526225 0.0014429564
-0.32667288 -0.047546398 0.04695268 -0.27862778 -0.23518498 -0.14270018 -0.14467354 -0.78812224
0.33330113 -0.3792098 0.14633156 -0.12795478 0.025942069 -0.00919653 0.017972576 0.072500765
0.23291343 -0.07720383 -0.2146769 -0.23912941 -0.00075187924 -0.38433334 -0.05853897 -0.23725629
-0.086376 -0.29957956 0.3266618 -0.6840654 0.17381811 -0.06777477 -0.3935905 -0.11575357
-0.10023656 -0.48726246 0.05374625 0.41490662 -0.02924538 -0.2035883 -0.2124654 0.28061998
-0.37722382 0.24285324 0.2352539 0.03087795 0.039377976 -0.106583886 -0.011078917 0.30056646
0.07059802 0.20359193 0.3860386 -0.06283268 -0.2334392 0.10956833 -0.029525759 -0.03427993
0.035344094 -0.1856078 0.022237506 -0.0068527847 0.33391902 0.051612377 -0.52362627 -0.050046436
0.19036646 -0.05915428 -0.12643896 0.19802804 0.14796612 -0.033036955 -0.037580337 0.16107517
0.1741805 0.5795082 0.3445195 -0.055150654 -0.035828263 0.59772664 0.08455811 -0.3414713
0.031614043 -0.20317695 0.13507791 -0.13879043 -0.7204358 -0.22772904 -0.39710712 0.16192512
0.20440328 0.049479052 -0.3319153 -0.6418343 0.12178745 -0.0030987025 0.02482593 0.19342802
-0.51077205 0.06908925 0.12675044 -0.21308795 -0.0036125525 0.36987132 -0.64097077 -0.14318141
0.4620267 -0.02743208 0.073430516 -0.74750596 -0.7607218 0.18124466 -0.019898519 0.081316896
0.33738247 -0.20484686 0.11662388 -0.06532488 -0.68850225 0.2866177 -0.5038378 -0.4468507
-0.29427654 -0.079648755 -0.0030059735 -0.6592761 0.14784898 -0.17862482 0.1890835 0.16413814
0.18317084 -0.029152783 -0.34852362 -0.37116078 -0.007591484 -0.502188 -0.3760003 -0.6645852
0.1628855 -0.06084361 -0.028412636 -0.40615267 0.23403294 0.1704028 0.026572624 0.032038722
-0.061873216 0.19349651 0.17453225 0.4513962 -0.19114746 0.14062901 0.45496738 -0.72849417
0.18835185 -0.7834673 -0.054036785 -0.90159065 -0.22758178 -0.29289672 -0.61906755 0.7017057
0.24925542 -0.038618624 -0.4896716 -0.77224886 0.28260392 -0.024170853 0.044020794 0.18860047
0.22143938 -0.13711634 0.16836539 -0.3735636 0.32903504 -0.40755805 0.07098863 0.18321563
0.25635156 -0.21798995 0.3809058 -0.61164 -0.7844482 -0.057318937 0.3678263 -0.30266336
0.014282649 0.41292506 0.09704948 -0.052682783 0.25513884 0.0007581896 0.45667604 -0.18628347
-0.27090326 -0.0053928583 -0.22711813 0.27334464 -0.52468276 -0.27399188 -0.46847022 -0.02652496
-0.80458254 -0.058787983 0.037002992 0.44100958 0.044473443 -0.13413784 0.5880605 -0.8079273
0.4663395 0.14576563 0.3079385 0.28647757 -0.04036454 -0.38531068 0.21517698 0.18352322
0.22073686 -0.58093804 -0.30865622 -0.3771572 -0.0317335 0.23428638 0.015285011 0.12715657
0.14283924 0.26224917 0.046318162 -0.8245929 -0.24475554 -0.01919268 0.09972298 -0.0694977
00000000: efd2 21bf 3fa3 2a3e b67f 0e3e f7ee 08bf
00000010: f7d7 01bf 85ea 043c f75e c3be e3a5 d53e
00000020: 2ae2 88bc a2bf c33e 2f3b 8f3d a6f6 643d
00000030: 5791 97be 29d7 b63e 055e 8f3e 12c2 753e
00000040: d9bf 4c3e 82f1 8bbc ff52 093f f0df 06bf
00000050: e236 a7bd 5c2e 2a3e efe4 b5be 9521 bd3a
00000060: ab41 a7be 03c0 42bd 7451 403d 4da8 8ebe
00000070: 55d4 70be ff1f 12be 4d25 14be 61c2 49bf
00000080: 72a6 aa3e c927 c2be f1d7 153e 9406 03be
00000090: 7684 d43c 0bad 16bc 393b 933c 487b 943d
000000a0: dc80 6e3e 0b1d 9ebd 43d4 5bbe 57de 74be
000000b0: c319 45ba 57c7 c4be 8fc6 6fbd 50f3 72be
000000c0: e6e5 b0bd 7e62 99be 3740 a73e e91e 2fbf
000000d0: 60fd 313e 80cd 8abd b284 c9be 3510 edbd
000000e0: d348 cdbd 777a f9be 0725 5c3d a46e d43e
000000f0: 0294 efbc 7479 50be 8890 59be 6cad 8f3e
00000100: 7b23 c1be 85ae 783e 66e6 703e c1f3 fc3c
00000110: cd4a 213d a748 dabd 5984 35bc d9e3 993e
00000120: b295 903d 677a 503e daa6 c53e 6cae 80bd
00000130: b00a 6fbe 5c65 e03d 01e0 f1bc 1d69 0cbd
00000140: f8c4 103d f90f 3ebe 6e2b b63c 538d e0bb
00000150: 6ff7 aa3e 8067 533d 5f0c 06bf 7efd 4cbd
00000160: 6def 423e c24b 72bd 3779 01be ddc7 4a3e
00000170: 6e84 173e c251 07bd d7ed 19bd e4f0 243e
00000180: 5f5c 323e a65a 143f dc64 b03e a7e5 61bd
00000190: a8c0 12bd 9d04 193f cd2c ad3d 54d5 aebe
000001a0: ba7d 013d 9e0d 50be dd51 0a3e 141f 0ebe
000001b0: 7b6e 38bf cd31 69be a051 cbbe b3cf 253e
000001c0: 184f 513e 8caa 4a3d cdf0 a9be 414f 24bf
000001d0: b36b f93d 9a13 4bbb c05f cb3c ff11 463e
000001e0: f5c1 02bf aa7e 8d3d deca 013e ba33 5abe
000001f0: 93c0 6cbb c65f bd3e a916 24bf 269e 12be
00000200: c38e ec3e 3eb9 e0bc bd62 963d 8d5c 3fbf
00000210: aabe 42bf 3398 393e 3802 a3bc 7989 a63d
00000220: 65bd ac3e 60c3 51be 80d8 ee3d 0dc9 85bd
00000230: af41 30bf 8ebf 923e 84fb 00bf 9dc9 e4be
00000240: 6aab 96be e31e a3bd deff 44bb 52c6 28bf
00000250: b965 173e 6de9 36be 1b9f 413e d413 283e
00000260: 2391 3b3e d1d1 eebc b071 b2be c908 bebe
00000270: fcc1 f8bb 658f 00bf 1c83 c0be 4122 2abf
00000280: 75cb 263e 2637 79bd 9ec1 e8bc 3ef3 cfbe
00000290: 55a6 6f3e 127e 2e3e d5ae d93c 093b 033d
000002a0: c56e 7dbd f323 463e 95b8 323e 671d e73e
000002b0: 29bc 43be 0d01 103e 7cf1 e83e 987e 3abf
000002c0: 4fdf 403e 5091 48bf ad55 5dbd a5ce 66bf
000002d0: 330b 69be 8ff6 95be 367b 1ebf fca2 333f
000002e0: d03c 7f3e 902e 1ebd 3cb6 fabe 1ab2 45bf
000002f0: 76b1 903e f401 c6bc 264f 343d 7b20 413e
00000300: 01c1 623e 3a68 0cbe fa67 2c3e ba43 bfbe
00000310: 4877 a83e 73ab d0be 7d62 913d e19c 3b3e
00000320: 8340 833e c238 5fbe 1606 c33e 7094 1cbf
00000330: 99d1 48bf 43c7 6abd bb53 bc3e b1f6 9abe
00000340: c601 6a3c ea6a d33e e1c1 c63d e7c9 57bd
00000350: 8fa1 823e 3ec1 463a 71d1 e93e 18c1 3ebe
00000360: d5b3 8abe 93b6 b0bb a891 68be d4f3 8b3e
00000370: 9c51 06bf aa48 8cbe 54db efbe df4a d9bc
00000380: 1ff9 4dbf abcb 70bd 7390 173d 02cc e13e
00000390: c929 363d 6e5b 09be 228b 163f 53d4 4ebf
000003a0: 0dc4 ee3e 9643 153e 1daa 9d3e 30ad 923e
000003b0: 4a55 25bd 7147 c5be 5b57 5c3e 83ed 3b3e
000003c0: d808 623e 5bb8 14bf 3008 9ebe c01a c1be
000003d0: fdfa 01bd c5e8 6f3e fc6d 7a3c 5535 023e
000003e0: 7344 123e 8645 863e 1db8 3d3d 8518 53bf
000003f0: 32a1 7abe f839 9dbc 903b cc3d cf54 8ebd

7.bias f4 [2]
-0.007910935 0.05868467
00000000: de9c 01bc 565f 703d
